{"format": "layers-model", "generatedBy": "keras v2.3.1", "convertedBy": "TensorFlow.js Converter v2.0.1.post1", "modelTopology": {"keras_version": "2.3.1", "backend": "tensorflow", "model_config": {"class_name": "Model", "config": {"name": "model_2", "layers": [{"name": "input_1", "class_name": "InputLayer", "config": {"batch_input_shape": [null, null, null, 3], "dtype": "float32", "sparse": false, "name": "input_1"}, "inbound_nodes": []}, {"name": "conv_0", "class_name": "Conv2D", "config": {"name": "conv_0", "trainable": true, "dtype": "float32", "filters": 32, "kernel_size": [3, 3], "strides": [1, 1], "padding": "same", "data_format": "channels_last", "dilation_rate": [1, 1], "activation": "linear", "use_bias": false, "kernel_initializer": {"class_name": "VarianceScaling", "config": {"scale": 1.0, "mode": "fan_avg", "distribution": "uniform", "seed": null}}, "bias_initializer": {"class_name": "Zeros", "config": {}}, "kernel_regularizer": null, "bias_regularizer": null, "activity_regularizer": null, "kernel_constraint": null, "bias_constraint": null}, "inbound_nodes": [[["input_1", 0, 0, {}]]]}, {"name": "bnorm_0", "class_name": "BatchNormalization", "config": {"name": "bnorm_0", "trainable": true, "dtype": "float32", "axis": -1, "momentum": 0.99, "epsilon": 0.001, "center": true, "scale": true, "beta_initializer": {"class_name": "Zeros", "config": {}}, "gamma_initializer": {"class_name": "Ones", "config": {}}, "moving_mean_initializer": {"class_name": "Zeros", "config": {}}, "moving_variance_initializer": {"class_name": "Ones", "config": {}}, "beta_regularizer": null, "gamma_regularizer": null, "beta_constraint": null, "gamma_constraint": null}, "inbound_nodes": [[["conv_0", 0, 0, {}]]]}, {"name": "leaky_0", "class_name": "LeakyReLU", "config": {"name": "leaky_0", "trainable": true, "dtype": "float32", "alpha": 0.10000000149011612}, "inbound_nodes": [[["bnorm_0", 0, 0, {}]]]}, {"name": "zero_padding2d_1", "class_name": "ZeroPadding2D", "config": {"name": "zero_padding2d_1", "trainable": true, "dtype": "float32", "padding": [[1, 0], [1, 0]], "data_format": "channels_last"}, "inbound_nodes": [[["leaky_0", 0, 0, {}]]]}, {"name": "conv_1", "class_name": "Conv2D", "config": {"name": "conv_1", "trainable": true, "dtype": "float32", "filters": 64, "kernel_size": [3, 3], "strides": [2, 2], "padding": "valid", "data_format": "channels_last", "dilation_rate": [1, 1], "activation": "linear", "use_bias": false, "kernel_initializer": {"class_name": "VarianceScaling", "config": {"scale": 1.0, "mode": "fan_avg", "distribution": "uniform", "seed": null}}, "bias_initializer": {"class_name": "Zeros", "config": {}}, "kernel_regularizer": null, "bias_regularizer": null, "activity_regularizer": null, "kernel_constraint": null, "bias_constraint": null}, "inbound_nodes": [[["zero_padding2d_1", 0, 0, {}]]]}, {"name": "bnorm_1", "class_name": "BatchNormalization", "config": {"name": "bnorm_1", "trainable": true, "dtype": "float32", "axis": -1, "momentum": 0.99, "epsilon": 0.001, "center": true, "scale": true, "beta_initializer": {"class_name": "Zeros", "config": {}}, "gamma_initializer": {"class_name": "Ones", "config": {}}, "moving_mean_initializer": {"class_name": "Zeros", "config": {}}, "moving_variance_initializer": {"class_name": "Ones", "config": {}}, "beta_regularizer": null, "gamma_regularizer": null, "beta_constraint": null, "gamma_constraint": null}, "inbound_nodes": [[["conv_1", 0, 0, {}]]]}, {"name": "leaky_1", "class_name": "LeakyReLU", "config": {"name": "leaky_1", "trainable": true, "dtype": "float32", "alpha": 0.10000000149011612}, "inbound_nodes": [[["bnorm_1", 0, 0, {}]]]}, {"name": "conv_2", "class_name": "Conv2D", "config": {"name": "conv_2", "trainable": true, "dtype": "float32", "filters": 32, "kernel_size": [1, 1], "strides": [1, 1], "padding": "same", "data_format": "channels_last", "dilation_rate": [1, 1], "activation": "linear", "use_bias": false, "kernel_initializer": {"class_name": "VarianceScaling", "config": {"scale": 1.0, "mode": "fan_avg", "distribution": "uniform", "seed": null}}, "bias_initializer": {"class_name": "Zeros", "config": {}}, "kernel_regularizer": null, "bias_regularizer": null, "activity_regularizer": null, "kernel_constraint": null, "bias_constraint": null}, "inbound_nodes": [[["leaky_1", 0, 0, {}]]]}, {"name": "bnorm_2", "class_name": "BatchNormalization", "config": {"name": "bnorm_2", "trainable": true, "dtype": "float32", "axis": -1, "momentum": 0.99, "epsilon": 0.001, "center": true, "scale": true, "beta_initializer": {"class_name": "Zeros", "config": {}}, "gamma_initializer": {"class_name": "Ones", "config": {}}, "moving_mean_initializer": {"class_name": "Zeros", "config": {}}, "moving_variance_initializer": {"class_name": "Ones", "config": {}}, "beta_regularizer": null, "gamma_regularizer": null, "beta_constraint": null, "gamma_constraint": null}, "inbound_nodes": [[["conv_2", 0, 0, {}]]]}, {"name": "leaky_2", "class_name": "LeakyReLU", "config": {"name": "leaky_2", "trainable": true, "dtype": "float32", "alpha": 0.10000000149011612}, "inbound_nodes": [[["bnorm_2", 0, 0, {}]]]}, {"name": "conv_3", "class_name": "Conv2D", "config": {"name": "conv_3", "trainable": true, "dtype": "float32", "filters": 64, "kernel_size": [3, 3], "strides": [1, 1], "padding": "same", "data_format": "channels_last", "dilation_rate": [1, 1], "activation": "linear", "use_bias": false, "kernel_initializer": {"class_name": "VarianceScaling", "config": {"scale": 1.0, "mode": "fan_avg", "distribution": "uniform", "seed": null}}, "bias_initializer": {"class_name": "Zeros", "config": {}}, "kernel_regularizer": null, "bias_regularizer": null, "activity_regularizer": null, "kernel_constraint": null, "bias_constraint": null}, "inbound_nodes": [[["leaky_2", 0, 0, {}]]]}, {"name": "bnorm_3", "class_name": "BatchNormalization", "config": {"name": "bnorm_3", "trainable": true, "dtype": "float32", "axis": -1, "momentum": 0.99, "epsilon": 0.001, "center": true, "scale": true, "beta_initializer": {"class_name": "Zeros", "config": {}}, "gamma_initializer": {"class_name": "Ones", "config": {}}, "moving_mean_initializer": {"class_name": "Zeros", "config": {}}, "moving_variance_initializer": {"class_name": "Ones", "config": {}}, "beta_regularizer": null, "gamma_regularizer": null, "beta_constraint": null, "gamma_constraint": null}, "inbound_nodes": [[["conv_3", 0, 0, {}]]]}, {"name": "leaky_3", "class_name": "LeakyReLU", "config": {"name": "leaky_3", "trainable": true, "dtype": "float32", "alpha": 0.10000000149011612}, "inbound_nodes": [[["bnorm_3", 0, 0, {}]]]}, {"name": "add_1", "class_name": "Add", "config": {"name": "add_1", "trainable": true, "dtype": "float32"}, "inbound_nodes": [[["leaky_1", 0, 0, {}], ["leaky_3", 0, 0, {}]]]}, {"name": "zero_padding2d_2", "class_name": "ZeroPadding2D", "config": {"name": "zero_padding2d_2", "trainable": true, "dtype": "float32", "padding": [[1, 0], [1, 0]], "data_format": "channels_last"}, "inbound_nodes": [[["add_1", 0, 0, {}]]]}, {"name": "conv_5", "class_name": "Conv2D", "config": {"name": "conv_5", "trainable": true, "dtype": "float32", "filters": 128, "kernel_size": [3, 3], "strides": [2, 2], "padding": "valid", "data_format": "channels_last", "dilation_rate": [1, 1], "activation": "linear", "use_bias": false, "kernel_initializer": {"class_name": "VarianceScaling", "config": {"scale": 1.0, "mode": "fan_avg", "distribution": "uniform", "seed": null}}, "bias_initializer": {"class_name": "Zeros", "config": {}}, "kernel_regularizer": null, "bias_regularizer": null, "activity_regularizer": null, "kernel_constraint": null, "bias_constraint": null}, "inbound_nodes": [[["zero_padding2d_2", 0, 0, {}]]]}, {"name": "bnorm_5", "class_name": "BatchNormalization", "config": {"name": "bnorm_5", "trainable": true, "dtype": "float32", "axis": -1, "momentum": 0.99, "epsilon": 0.001, "center": true, "scale": true, "beta_initializer": {"class_name": "Zeros", "config": {}}, "gamma_initializer": {"class_name": "Ones", "config": {}}, "moving_mean_initializer": {"class_name": "Zeros", "config": {}}, "moving_variance_initializer": {"class_name": "Ones", "config": {}}, "beta_regularizer": null, "gamma_regularizer": null, "beta_constraint": null, "gamma_constraint": null}, "inbound_nodes": [[["conv_5", 0, 0, {}]]]}, {"name": "leaky_5", "class_name": "LeakyReLU", "config": {"name": "leaky_5", "trainable": true, "dtype": "float32", "alpha": 0.10000000149011612}, "inbound_nodes": [[["bnorm_5", 0, 0, {}]]]}, {"name": "conv_6", "class_name": "Conv2D", "config": {"name": "conv_6", "trainable": true, "dtype": "float32", "filters": 64, "kernel_size": [1, 1], "strides": [1, 1], "padding": "same", "data_format": "channels_last", "dilation_rate": [1, 1], "activation": "linear", "use_bias": false, "kernel_initializer": {"class_name": "VarianceScaling", "config": {"scale": 1.0, "mode": "fan_avg", "distribution": "uniform", "seed": null}}, "bias_initializer": {"class_name": "Zeros", "config": {}}, "kernel_regularizer": null, "bias_regularizer": null, "activity_regularizer": null, "kernel_constraint": null, "bias_constraint": null}, "inbound_nodes": [[["leaky_5", 0, 0, {}]]]}, {"name": "bnorm_6", "class_name": "BatchNormalization", "config": {"name": "bnorm_6", "trainable": true, "dtype": "float32", "axis": -1, "momentum": 0.99, "epsilon": 0.001, "center": true, "scale": true, "beta_initializer": {"class_name": "Zeros", "config": {}}, "gamma_initializer": {"class_name": "Ones", "config": {}}, "moving_mean_initializer": {"class_name": "Zeros", "config": {}}, "moving_variance_initializer": {"class_name": "Ones", "config": {}}, "beta_regularizer": null, "gamma_regularizer": null, "beta_constraint": null, "gamma_constraint": null}, "inbound_nodes": [[["conv_6", 0, 0, {}]]]}, {"name": "leaky_6", "class_name": "LeakyReLU", "config": {"name": "leaky_6", "trainable": true, "dtype": "float32", "alpha": 0.10000000149011612}, "inbound_nodes": [[["bnorm_6", 0, 0, {}]]]}, {"name": "conv_7", "class_name": "Conv2D", "config": {"name": "conv_7", "trainable": true, "dtype": "float32", "filters": 128, "kernel_size": [3, 3], "strides": [1, 1], "padding": "same", "data_format": "channels_last", "dilation_rate": [1, 1], "activation": "linear", "use_bias": false, "kernel_initializer": {"class_name": "VarianceScaling", "config": {"scale": 1.0, "mode": "fan_avg", "distribution": "uniform", "seed": null}}, "bias_initializer": {"class_name": "Zeros", "config": {}}, "kernel_regularizer": null, "bias_regularizer": null, "activity_regularizer": null, "kernel_constraint": null, "bias_constraint": null}, "inbound_nodes": [[["leaky_6", 0, 0, {}]]]}, {"name": "bnorm_7", "class_name": "BatchNormalization", "config": {"name": "bnorm_7", "trainable": true, "dtype": "float32", "axis": -1, "momentum": 0.99, "epsilon": 0.001, "center": true, "scale": true, "beta_initializer": {"class_name": "Zeros", "config": {}}, "gamma_initializer": {"class_name": "Ones", "config": {}}, "moving_mean_initializer": {"class_name": "Zeros", "config": {}}, "moving_variance_initializer": {"class_name": "Ones", "config": {}}, "beta_regularizer": null, "gamma_regularizer": null, "beta_constraint": null, "gamma_constraint": null}, "inbound_nodes": [[["conv_7", 0, 0, {}]]]}, {"name": "leaky_7", "class_name": "LeakyReLU", "config": {"name": "leaky_7", "trainable": true, "dtype": "float32", "alpha": 0.10000000149011612}, "inbound_nodes": [[["bnorm_7", 0, 0, {}]]]}, {"name": "add_2", "class_name": "Add", "config": {"name": "add_2", "trainable": true, "dtype": "float32"}, "inbound_nodes": [[["leaky_5", 0, 0, {}], ["leaky_7", 0, 0, {}]]]}, {"name": "conv_9", "class_name": "Conv2D", "config": {"name": "conv_9", "trainable": true, "dtype": "float32", "filters": 64, "kernel_size": [1, 1], "strides": [1, 1], "padding": "same", "data_format": "channels_last", "dilation_rate": [1, 1], "activation": "linear", "use_bias": false, "kernel_initializer": {"class_name": "VarianceScaling", "config": {"scale": 1.0, "mode": "fan_avg", "distribution": "uniform", "seed": null}}, "bias_initializer": {"class_name": "Zeros", "config": {}}, "kernel_regularizer": null, "bias_regularizer": null, "activity_regularizer": null, "kernel_constraint": null, "bias_constraint": null}, "inbound_nodes": [[["add_2", 0, 0, {}]]]}, {"name": "bnorm_9", "class_name": "BatchNormalization", "config": {"name": "bnorm_9", "trainable": true, "dtype": "float32", "axis": -1, "momentum": 0.99, "epsilon": 0.001, "center": true, "scale": true, "beta_initializer": {"class_name": "Zeros", "config": {}}, "gamma_initializer": {"class_name": "Ones", "config": {}}, "moving_mean_initializer": {"class_name": "Zeros", "config": {}}, "moving_variance_initializer": {"class_name": "Ones", "config": {}}, "beta_regularizer": null, "gamma_regularizer": null, "beta_constraint": null, "gamma_constraint": null}, "inbound_nodes": [[["conv_9", 0, 0, {}]]]}, {"name": "leaky_9", "class_name": "LeakyReLU", "config": {"name": "leaky_9", "trainable": true, "dtype": "float32", "alpha": 0.10000000149011612}, "inbound_nodes": [[["bnorm_9", 0, 0, {}]]]}, {"name": "conv_10", "class_name": "Conv2D", "config": {"name": "conv_10", "trainable": true, "dtype": "float32", "filters": 128, "kernel_size": [3, 3], "strides": [1, 1], "padding": "same", "data_format": "channels_last", "dilation_rate": [1, 1], "activation": "linear", "use_bias": false, "kernel_initializer": {"class_name": "VarianceScaling", "config": {"scale": 1.0, "mode": "fan_avg", "distribution": "uniform", "seed": null}}, "bias_initializer": {"class_name": "Zeros", "config": {}}, "kernel_regularizer": null, "bias_regularizer": null, "activity_regularizer": null, "kernel_constraint": null, "bias_constraint": null}, "inbound_nodes": [[["leaky_9", 0, 0, {}]]]}, {"name": "bnorm_10", "class_name": "BatchNormalization", "config": {"name": "bnorm_10", "trainable": true, "dtype": "float32", "axis": -1, "momentum": 0.99, "epsilon": 0.001, "center": true, "scale": true, "beta_initializer": {"class_name": "Zeros", "config": {}}, "gamma_initializer": {"class_name": "Ones", "config": {}}, "moving_mean_initializer": {"class_name": "Zeros", "config": {}}, "moving_variance_initializer": {"class_name": "Ones", "config": {}}, "beta_regularizer": null, "gamma_regularizer": null, "beta_constraint": null, "gamma_constraint": null}, "inbound_nodes": [[["conv_10", 0, 0, {}]]]}, {"name": "leaky_10", "class_name": "LeakyReLU", "config": {"name": "leaky_10", "trainable": true, "dtype": "float32", "alpha": 0.10000000149011612}, "inbound_nodes": [[["bnorm_10", 0, 0, {}]]]}, {"name": "add_3", "class_name": "Add", "config": {"name": "add_3", "trainable": true, "dtype": "float32"}, "inbound_nodes": [[["add_2", 0, 0, {}], ["leaky_10", 0, 0, {}]]]}, {"name": "zero_padding2d_3", "class_name": "ZeroPadding2D", "config": {"name": "zero_padding2d_3", "trainable": true, "dtype": "float32", "padding": [[1, 0], [1, 0]], "data_format": "channels_last"}, "inbound_nodes": [[["add_3", 0, 0, {}]]]}, {"name": "conv_12", "class_name": "Conv2D", "config": {"name": "conv_12", "trainable": true, "dtype": "float32", "filters": 256, "kernel_size": [3, 3], "strides": [2, 2], "padding": "valid", "data_format": "channels_last", "dilation_rate": [1, 1], "activation": "linear", "use_bias": false, "kernel_initializer": {"class_name": "VarianceScaling", "config": {"scale": 1.0, "mode": "fan_avg", "distribution": "uniform", "seed": null}}, "bias_initializer": {"class_name": "Zeros", "config": {}}, "kernel_regularizer": null, "bias_regularizer": null, "activity_regularizer": null, "kernel_constraint": null, "bias_constraint": null}, "inbound_nodes": [[["zero_padding2d_3", 0, 0, {}]]]}, {"name": "bnorm_12", "class_name": "BatchNormalization", "config": {"name": "bnorm_12", "trainable": true, "dtype": "float32", "axis": -1, "momentum": 0.99, "epsilon": 0.001, "center": true, "scale": true, "beta_initializer": {"class_name": "Zeros", "config": {}}, "gamma_initializer": {"class_name": "Ones", "config": {}}, "moving_mean_initializer": {"class_name": "Zeros", "config": {}}, "moving_variance_initializer": {"class_name": "Ones", "config": {}}, "beta_regularizer": null, "gamma_regularizer": null, "beta_constraint": null, "gamma_constraint": null}, "inbound_nodes": [[["conv_12", 0, 0, {}]]]}, {"name": "leaky_12", "class_name": "LeakyReLU", "config": {"name": "leaky_12", "trainable": true, "dtype": "float32", "alpha": 0.10000000149011612}, "inbound_nodes": [[["bnorm_12", 0, 0, {}]]]}, {"name": "conv_13", "class_name": "Conv2D", "config": {"name": "conv_13", "trainable": true, "dtype": "float32", "filters": 128, "kernel_size": [1, 1], "strides": [1, 1], "padding": "same", "data_format": "channels_last", "dilation_rate": [1, 1], "activation": "linear", "use_bias": false, "kernel_initializer": {"class_name": "VarianceScaling", "config": {"scale": 1.0, "mode": "fan_avg", "distribution": "uniform", "seed": null}}, "bias_initializer": {"class_name": "Zeros", "config": {}}, "kernel_regularizer": null, "bias_regularizer": null, "activity_regularizer": null, "kernel_constraint": null, "bias_constraint": null}, "inbound_nodes": [[["leaky_12", 0, 0, {}]]]}, {"name": "bnorm_13", "class_name": "BatchNormalization", "config": {"name": "bnorm_13", "trainable": true, "dtype": "float32", "axis": -1, "momentum": 0.99, "epsilon": 0.001, "center": true, "scale": true, "beta_initializer": {"class_name": "Zeros", "config": {}}, "gamma_initializer": {"class_name": "Ones", "config": {}}, "moving_mean_initializer": {"class_name": "Zeros", "config": {}}, "moving_variance_initializer": {"class_name": "Ones", "config": {}}, "beta_regularizer": null, "gamma_regularizer": null, "beta_constraint": null, "gamma_constraint": null}, "inbound_nodes": [[["conv_13", 0, 0, {}]]]}, {"name": "leaky_13", "class_name": "LeakyReLU", "config": {"name": "leaky_13", "trainable": true, "dtype": "float32", "alpha": 0.10000000149011612}, "inbound_nodes": [[["bnorm_13", 0, 0, {}]]]}, {"name": "conv_14", "class_name": "Conv2D", "config": {"name": "conv_14", "trainable": true, "dtype": "float32", "filters": 256, "kernel_size": [3, 3], "strides": [1, 1], "padding": "same", "data_format": "channels_last", "dilation_rate": [1, 1], "activation": "linear", "use_bias": false, "kernel_initializer": {"class_name": "VarianceScaling", "config": {"scale": 1.0, "mode": "fan_avg", "distribution": "uniform", "seed": null}}, "bias_initializer": {"class_name": "Zeros", "config": {}}, "kernel_regularizer": null, "bias_regularizer": null, "activity_regularizer": null, "kernel_constraint": null, "bias_constraint": null}, "inbound_nodes": [[["leaky_13", 0, 0, {}]]]}, {"name": "bnorm_14", "class_name": "BatchNormalization", "config": {"name": "bnorm_14", "trainable": true, "dtype": "float32", "axis": -1, "momentum": 0.99, "epsilon": 0.001, "center": true, "scale": true, "beta_initializer": {"class_name": "Zeros", "config": {}}, "gamma_initializer": {"class_name": "Ones", "config": {}}, "moving_mean_initializer": {"class_name": "Zeros", "config": {}}, "moving_variance_initializer": {"class_name": "Ones", "config": {}}, "beta_regularizer": null, "gamma_regularizer": null, "beta_constraint": null, "gamma_constraint": null}, "inbound_nodes": [[["conv_14", 0, 0, {}]]]}, {"name": "leaky_14", "class_name": "LeakyReLU", "config": {"name": "leaky_14", "trainable": true, "dtype": "float32", "alpha": 0.10000000149011612}, "inbound_nodes": [[["bnorm_14", 0, 0, {}]]]}, {"name": "add_4", "class_name": "Add", "config": {"name": "add_4", "trainable": true, "dtype": "float32"}, "inbound_nodes": [[["leaky_12", 0, 0, {}], ["leaky_14", 0, 0, {}]]]}, {"name": "conv_16", "class_name": "Conv2D", "config": {"name": "conv_16", "trainable": true, "dtype": "float32", "filters": 128, "kernel_size": [1, 1], "strides": [1, 1], "padding": "same", "data_format": "channels_last", "dilation_rate": [1, 1], "activation": "linear", "use_bias": false, "kernel_initializer": {"class_name": "VarianceScaling", "config": {"scale": 1.0, "mode": "fan_avg", "distribution": "uniform", "seed": null}}, "bias_initializer": {"class_name": "Zeros", "config": {}}, "kernel_regularizer": null, "bias_regularizer": null, "activity_regularizer": null, "kernel_constraint": null, "bias_constraint": null}, "inbound_nodes": [[["add_4", 0, 0, {}]]]}, {"name": "bnorm_16", "class_name": "BatchNormalization", "config": {"name": "bnorm_16", "trainable": true, "dtype": "float32", "axis": -1, "momentum": 0.99, "epsilon": 0.001, "center": true, "scale": true, "beta_initializer": {"class_name": "Zeros", "config": {}}, "gamma_initializer": {"class_name": "Ones", "config": {}}, "moving_mean_initializer": {"class_name": "Zeros", "config": {}}, "moving_variance_initializer": {"class_name": "Ones", "config": {}}, "beta_regularizer": null, "gamma_regularizer": null, "beta_constraint": null, "gamma_constraint": null}, "inbound_nodes": [[["conv_16", 0, 0, {}]]]}, {"name": "leaky_16", "class_name": "LeakyReLU", "config": {"name": "leaky_16", "trainable": true, "dtype": "float32", "alpha": 0.10000000149011612}, "inbound_nodes": [[["bnorm_16", 0, 0, {}]]]}, {"name": "conv_17", "class_name": "Conv2D", "config": {"name": "conv_17", "trainable": true, "dtype": "float32", "filters": 256, "kernel_size": [3, 3], "strides": [1, 1], "padding": "same", "data_format": "channels_last", "dilation_rate": [1, 1], "activation": "linear", "use_bias": false, "kernel_initializer": {"class_name": "VarianceScaling", "config": {"scale": 1.0, "mode": "fan_avg", "distribution": "uniform", "seed": null}}, "bias_initializer": {"class_name": "Zeros", "config": {}}, "kernel_regularizer": null, "bias_regularizer": null, "activity_regularizer": null, "kernel_constraint": null, "bias_constraint": null}, "inbound_nodes": [[["leaky_16", 0, 0, {}]]]}, {"name": "bnorm_17", "class_name": "BatchNormalization", "config": {"name": "bnorm_17", "trainable": true, "dtype": "float32", "axis": -1, "momentum": 0.99, "epsilon": 0.001, "center": true, "scale": true, "beta_initializer": {"class_name": "Zeros", "config": {}}, "gamma_initializer": {"class_name": "Ones", "config": {}}, "moving_mean_initializer": {"class_name": "Zeros", "config": {}}, "moving_variance_initializer": {"class_name": "Ones", "config": {}}, "beta_regularizer": null, "gamma_regularizer": null, "beta_constraint": null, "gamma_constraint": null}, "inbound_nodes": [[["conv_17", 0, 0, {}]]]}, {"name": "leaky_17", "class_name": "LeakyReLU", "config": {"name": "leaky_17", "trainable": true, "dtype": "float32", "alpha": 0.10000000149011612}, "inbound_nodes": [[["bnorm_17", 0, 0, {}]]]}, {"name": "add_5", "class_name": "Add", "config": {"name": "add_5", "trainable": true, "dtype": "float32"}, "inbound_nodes": [[["add_4", 0, 0, {}], ["leaky_17", 0, 0, {}]]]}, {"name": "conv_19", "class_name": "Conv2D", "config": {"name": "conv_19", "trainable": true, "dtype": "float32", "filters": 128, "kernel_size": [1, 1], "strides": [1, 1], "padding": "same", "data_format": "channels_last", "dilation_rate": [1, 1], "activation": "linear", "use_bias": false, "kernel_initializer": {"class_name": "VarianceScaling", "config": {"scale": 1.0, "mode": "fan_avg", "distribution": "uniform", "seed": null}}, "bias_initializer": {"class_name": "Zeros", "config": {}}, "kernel_regularizer": null, "bias_regularizer": null, "activity_regularizer": null, "kernel_constraint": null, "bias_constraint": null}, "inbound_nodes": [[["add_5", 0, 0, {}]]]}, {"name": "bnorm_19", "class_name": "BatchNormalization", "config": {"name": "bnorm_19", "trainable": true, "dtype": "float32", "axis": -1, "momentum": 0.99, "epsilon": 0.001, "center": true, "scale": true, "beta_initializer": {"class_name": "Zeros", "config": {}}, "gamma_initializer": {"class_name": "Ones", "config": {}}, "moving_mean_initializer": {"class_name": "Zeros", "config": {}}, "moving_variance_initializer": {"class_name": "Ones", "config": {}}, "beta_regularizer": null, "gamma_regularizer": null, "beta_constraint": null, "gamma_constraint": null}, "inbound_nodes": [[["conv_19", 0, 0, {}]]]}, {"name": "leaky_19", "class_name": "LeakyReLU", "config": {"name": "leaky_19", "trainable": true, "dtype": "float32", "alpha": 0.10000000149011612}, "inbound_nodes": [[["bnorm_19", 0, 0, {}]]]}, {"name": "conv_20", "class_name": "Conv2D", "config": {"name": "conv_20", "trainable": true, "dtype": "float32", "filters": 256, "kernel_size": [3, 3], "strides": [1, 1], "padding": "same", "data_format": "channels_last", "dilation_rate": [1, 1], "activation": "linear", "use_bias": false, "kernel_initializer": {"class_name": "VarianceScaling", "config": {"scale": 1.0, "mode": "fan_avg", "distribution": "uniform", "seed": null}}, "bias_initializer": {"class_name": "Zeros", "config": {}}, "kernel_regularizer": null, "bias_regularizer": null, "activity_regularizer": null, "kernel_constraint": null, "bias_constraint": null}, "inbound_nodes": [[["leaky_19", 0, 0, {}]]]}, {"name": "bnorm_20", "class_name": "BatchNormalization", "config": {"name": "bnorm_20", "trainable": true, "dtype": "float32", "axis": -1, "momentum": 0.99, "epsilon": 0.001, "center": true, "scale": true, "beta_initializer": {"class_name": "Zeros", "config": {}}, "gamma_initializer": {"class_name": "Ones", "config": {}}, "moving_mean_initializer": {"class_name": "Zeros", "config": {}}, "moving_variance_initializer": {"class_name": "Ones", "config": {}}, "beta_regularizer": null, "gamma_regularizer": null, "beta_constraint": null, "gamma_constraint": null}, "inbound_nodes": [[["conv_20", 0, 0, {}]]]}, {"name": "leaky_20", "class_name": "LeakyReLU", "config": {"name": "leaky_20", "trainable": true, "dtype": "float32", "alpha": 0.10000000149011612}, "inbound_nodes": [[["bnorm_20", 0, 0, {}]]]}, {"name": "add_6", "class_name": "Add", "config": {"name": "add_6", "trainable": true, "dtype": "float32"}, "inbound_nodes": [[["add_5", 0, 0, {}], ["leaky_20", 0, 0, {}]]]}, {"name": "conv_22", "class_name": "Conv2D", "config": {"name": "conv_22", "trainable": true, "dtype": "float32", "filters": 128, "kernel_size": [1, 1], "strides": [1, 1], "padding": "same", "data_format": "channels_last", "dilation_rate": [1, 1], "activation": "linear", "use_bias": false, "kernel_initializer": {"class_name": "VarianceScaling", "config": {"scale": 1.0, "mode": "fan_avg", "distribution": "uniform", "seed": null}}, "bias_initializer": {"class_name": "Zeros", "config": {}}, "kernel_regularizer": null, "bias_regularizer": null, "activity_regularizer": null, "kernel_constraint": null, "bias_constraint": null}, "inbound_nodes": [[["add_6", 0, 0, {}]]]}, {"name": "bnorm_22", "class_name": "BatchNormalization", "config": {"name": "bnorm_22", "trainable": true, "dtype": "float32", "axis": -1, "momentum": 0.99, "epsilon": 0.001, "center": true, "scale": true, "beta_initializer": {"class_name": "Zeros", "config": {}}, "gamma_initializer": {"class_name": "Ones", "config": {}}, "moving_mean_initializer": {"class_name": "Zeros", "config": {}}, "moving_variance_initializer": {"class_name": "Ones", "config": {}}, "beta_regularizer": null, "gamma_regularizer": null, "beta_constraint": null, "gamma_constraint": null}, "inbound_nodes": [[["conv_22", 0, 0, {}]]]}, {"name": "leaky_22", "class_name": "LeakyReLU", "config": {"name": "leaky_22", "trainable": true, "dtype": "float32", "alpha": 0.10000000149011612}, "inbound_nodes": [[["bnorm_22", 0, 0, {}]]]}, {"name": "conv_23", "class_name": "Conv2D", "config": {"name": "conv_23", "trainable": true, "dtype": "float32", "filters": 256, "kernel_size": [3, 3], "strides": [1, 1], "padding": "same", "data_format": "channels_last", "dilation_rate": [1, 1], "activation": "linear", "use_bias": false, "kernel_initializer": {"class_name": "VarianceScaling", "config": {"scale": 1.0, "mode": "fan_avg", "distribution": "uniform", "seed": null}}, "bias_initializer": {"class_name": "Zeros", "config": {}}, "kernel_regularizer": null, "bias_regularizer": null, "activity_regularizer": null, "kernel_constraint": null, "bias_constraint": null}, "inbound_nodes": [[["leaky_22", 0, 0, {}]]]}, {"name": "bnorm_23", "class_name": "BatchNormalization", "config": {"name": "bnorm_23", "trainable": true, "dtype": "float32", "axis": -1, "momentum": 0.99, "epsilon": 0.001, "center": true, "scale": true, "beta_initializer": {"class_name": "Zeros", "config": {}}, "gamma_initializer": {"class_name": "Ones", "config": {}}, "moving_mean_initializer": {"class_name": "Zeros", "config": {}}, "moving_variance_initializer": {"class_name": "Ones", "config": {}}, "beta_regularizer": null, "gamma_regularizer": null, "beta_constraint": null, "gamma_constraint": null}, "inbound_nodes": [[["conv_23", 0, 0, {}]]]}, {"name": "leaky_23", "class_name": "LeakyReLU", "config": {"name": "leaky_23", "trainable": true, "dtype": "float32", "alpha": 0.10000000149011612}, "inbound_nodes": [[["bnorm_23", 0, 0, {}]]]}, {"name": "add_7", "class_name": "Add", "config": {"name": "add_7", "trainable": true, "dtype": "float32"}, "inbound_nodes": [[["add_6", 0, 0, {}], ["leaky_23", 0, 0, {}]]]}, {"name": "conv_25", "class_name": "Conv2D", "config": {"name": "conv_25", "trainable": true, "dtype": "float32", "filters": 128, "kernel_size": [1, 1], "strides": [1, 1], "padding": "same", "data_format": "channels_last", "dilation_rate": [1, 1], "activation": "linear", "use_bias": false, "kernel_initializer": {"class_name": "VarianceScaling", "config": {"scale": 1.0, "mode": "fan_avg", "distribution": "uniform", "seed": null}}, "bias_initializer": {"class_name": "Zeros", "config": {}}, "kernel_regularizer": null, "bias_regularizer": null, "activity_regularizer": null, "kernel_constraint": null, "bias_constraint": null}, "inbound_nodes": [[["add_7", 0, 0, {}]]]}, {"name": "bnorm_25", "class_name": "BatchNormalization", "config": {"name": "bnorm_25", "trainable": true, "dtype": "float32", "axis": -1, "momentum": 0.99, "epsilon": 0.001, "center": true, "scale": true, "beta_initializer": {"class_name": "Zeros", "config": {}}, "gamma_initializer": {"class_name": "Ones", "config": {}}, "moving_mean_initializer": {"class_name": "Zeros", "config": {}}, "moving_variance_initializer": {"class_name": "Ones", "config": {}}, "beta_regularizer": null, "gamma_regularizer": null, "beta_constraint": null, "gamma_constraint": null}, "inbound_nodes": [[["conv_25", 0, 0, {}]]]}, {"name": "leaky_25", "class_name": "LeakyReLU", "config": {"name": "leaky_25", "trainable": true, "dtype": "float32", "alpha": 0.10000000149011612}, "inbound_nodes": [[["bnorm_25", 0, 0, {}]]]}, {"name": "conv_26", "class_name": "Conv2D", "config": {"name": "conv_26", "trainable": true, "dtype": "float32", "filters": 256, "kernel_size": [3, 3], "strides": [1, 1], "padding": "same", "data_format": "channels_last", "dilation_rate": [1, 1], "activation": "linear", "use_bias": false, "kernel_initializer": {"class_name": "VarianceScaling", "config": {"scale": 1.0, "mode": "fan_avg", "distribution": "uniform", "seed": null}}, "bias_initializer": {"class_name": "Zeros", "config": {}}, "kernel_regularizer": null, "bias_regularizer": null, "activity_regularizer": null, "kernel_constraint": null, "bias_constraint": null}, "inbound_nodes": [[["leaky_25", 0, 0, {}]]]}, {"name": "bnorm_26", "class_name": "BatchNormalization", "config": {"name": "bnorm_26", "trainable": true, "dtype": "float32", "axis": -1, "momentum": 0.99, "epsilon": 0.001, "center": true, "scale": true, "beta_initializer": {"class_name": "Zeros", "config": {}}, "gamma_initializer": {"class_name": "Ones", "config": {}}, "moving_mean_initializer": {"class_name": "Zeros", "config": {}}, "moving_variance_initializer": {"class_name": "Ones", "config": {}}, "beta_regularizer": null, "gamma_regularizer": null, "beta_constraint": null, "gamma_constraint": null}, "inbound_nodes": [[["conv_26", 0, 0, {}]]]}, {"name": "leaky_26", "class_name": "LeakyReLU", "config": {"name": "leaky_26", "trainable": true, "dtype": "float32", "alpha": 0.10000000149011612}, "inbound_nodes": [[["bnorm_26", 0, 0, {}]]]}, {"name": "add_8", "class_name": "Add", "config": {"name": "add_8", "trainable": true, "dtype": "float32"}, "inbound_nodes": [[["add_7", 0, 0, {}], ["leaky_26", 0, 0, {}]]]}, {"name": "conv_28", "class_name": "Conv2D", "config": {"name": "conv_28", "trainable": true, "dtype": "float32", "filters": 128, "kernel_size": [1, 1], "strides": [1, 1], "padding": "same", "data_format": "channels_last", "dilation_rate": [1, 1], "activation": "linear", "use_bias": false, "kernel_initializer": {"class_name": "VarianceScaling", "config": {"scale": 1.0, "mode": "fan_avg", "distribution": "uniform", "seed": null}}, "bias_initializer": {"class_name": "Zeros", "config": {}}, "kernel_regularizer": null, "bias_regularizer": null, "activity_regularizer": null, "kernel_constraint": null, "bias_constraint": null}, "inbound_nodes": [[["add_8", 0, 0, {}]]]}, {"name": "bnorm_28", "class_name": "BatchNormalization", "config": {"name": "bnorm_28", "trainable": true, "dtype": "float32", "axis": -1, "momentum": 0.99, "epsilon": 0.001, "center": true, "scale": true, "beta_initializer": {"class_name": "Zeros", "config": {}}, "gamma_initializer": {"class_name": "Ones", "config": {}}, "moving_mean_initializer": {"class_name": "Zeros", "config": {}}, "moving_variance_initializer": {"class_name": "Ones", "config": {}}, "beta_regularizer": null, "gamma_regularizer": null, "beta_constraint": null, "gamma_constraint": null}, "inbound_nodes": [[["conv_28", 0, 0, {}]]]}, {"name": "leaky_28", "class_name": "LeakyReLU", "config": {"name": "leaky_28", "trainable": true, "dtype": "float32", "alpha": 0.10000000149011612}, "inbound_nodes": [[["bnorm_28", 0, 0, {}]]]}, {"name": "conv_29", "class_name": "Conv2D", "config": {"name": "conv_29", "trainable": true, "dtype": "float32", "filters": 256, "kernel_size": [3, 3], "strides": [1, 1], "padding": "same", "data_format": "channels_last", "dilation_rate": [1, 1], "activation": "linear", "use_bias": false, "kernel_initializer": {"class_name": "VarianceScaling", "config": {"scale": 1.0, "mode": "fan_avg", "distribution": "uniform", "seed": null}}, "bias_initializer": {"class_name": "Zeros", "config": {}}, "kernel_regularizer": null, "bias_regularizer": null, "activity_regularizer": null, "kernel_constraint": null, "bias_constraint": null}, "inbound_nodes": [[["leaky_28", 0, 0, {}]]]}, {"name": "bnorm_29", "class_name": "BatchNormalization", "config": {"name": "bnorm_29", "trainable": true, "dtype": "float32", "axis": -1, "momentum": 0.99, "epsilon": 0.001, "center": true, "scale": true, "beta_initializer": {"class_name": "Zeros", "config": {}}, "gamma_initializer": {"class_name": "Ones", "config": {}}, "moving_mean_initializer": {"class_name": "Zeros", "config": {}}, "moving_variance_initializer": {"class_name": "Ones", "config": {}}, "beta_regularizer": null, "gamma_regularizer": null, "beta_constraint": null, "gamma_constraint": null}, "inbound_nodes": [[["conv_29", 0, 0, {}]]]}, {"name": "leaky_29", "class_name": "LeakyReLU", "config": {"name": "leaky_29", "trainable": true, "dtype": "float32", "alpha": 0.10000000149011612}, "inbound_nodes": [[["bnorm_29", 0, 0, {}]]]}, {"name": "add_9", "class_name": "Add", "config": {"name": "add_9", "trainable": true, "dtype": "float32"}, "inbound_nodes": [[["add_8", 0, 0, {}], ["leaky_29", 0, 0, {}]]]}, {"name": "conv_31", "class_name": "Conv2D", "config": {"name": "conv_31", "trainable": true, "dtype": "float32", "filters": 128, "kernel_size": [1, 1], "strides": [1, 1], "padding": "same", "data_format": "channels_last", "dilation_rate": [1, 1], "activation": "linear", "use_bias": false, "kernel_initializer": {"class_name": "VarianceScaling", "config": {"scale": 1.0, "mode": "fan_avg", "distribution": "uniform", "seed": null}}, "bias_initializer": {"class_name": "Zeros", "config": {}}, "kernel_regularizer": null, "bias_regularizer": null, "activity_regularizer": null, "kernel_constraint": null, "bias_constraint": null}, "inbound_nodes": [[["add_9", 0, 0, {}]]]}, {"name": "bnorm_31", "class_name": "BatchNormalization", "config": {"name": "bnorm_31", "trainable": true, "dtype": "float32", "axis": -1, "momentum": 0.99, "epsilon": 0.001, "center": true, "scale": true, "beta_initializer": {"class_name": "Zeros", "config": {}}, "gamma_initializer": {"class_name": "Ones", "config": {}}, "moving_mean_initializer": {"class_name": "Zeros", "config": {}}, "moving_variance_initializer": {"class_name": "Ones", "config": {}}, "beta_regularizer": null, "gamma_regularizer": null, "beta_constraint": null, "gamma_constraint": null}, "inbound_nodes": [[["conv_31", 0, 0, {}]]]}, {"name": "leaky_31", "class_name": "LeakyReLU", "config": {"name": "leaky_31", "trainable": true, "dtype": "float32", "alpha": 0.10000000149011612}, "inbound_nodes": [[["bnorm_31", 0, 0, {}]]]}, {"name": "conv_32", "class_name": "Conv2D", "config": {"name": "conv_32", "trainable": true, "dtype": "float32", "filters": 256, "kernel_size": [3, 3], "strides": [1, 1], "padding": "same", "data_format": "channels_last", "dilation_rate": [1, 1], "activation": "linear", "use_bias": false, "kernel_initializer": {"class_name": "VarianceScaling", "config": {"scale": 1.0, "mode": "fan_avg", "distribution": "uniform", "seed": null}}, "bias_initializer": {"class_name": "Zeros", "config": {}}, "kernel_regularizer": null, "bias_regularizer": null, "activity_regularizer": null, "kernel_constraint": null, "bias_constraint": null}, "inbound_nodes": [[["leaky_31", 0, 0, {}]]]}, {"name": "bnorm_32", "class_name": "BatchNormalization", "config": {"name": "bnorm_32", "trainable": true, "dtype": "float32", "axis": -1, "momentum": 0.99, "epsilon": 0.001, "center": true, "scale": true, "beta_initializer": {"class_name": "Zeros", "config": {}}, "gamma_initializer": {"class_name": "Ones", "config": {}}, "moving_mean_initializer": {"class_name": "Zeros", "config": {}}, "moving_variance_initializer": {"class_name": "Ones", "config": {}}, "beta_regularizer": null, "gamma_regularizer": null, "beta_constraint": null, "gamma_constraint": null}, "inbound_nodes": [[["conv_32", 0, 0, {}]]]}, {"name": "leaky_32", "class_name": "LeakyReLU", "config": {"name": "leaky_32", "trainable": true, "dtype": "float32", "alpha": 0.10000000149011612}, "inbound_nodes": [[["bnorm_32", 0, 0, {}]]]}, {"name": "add_10", "class_name": "Add", "config": {"name": "add_10", "trainable": true, "dtype": "float32"}, "inbound_nodes": [[["add_9", 0, 0, {}], ["leaky_32", 0, 0, {}]]]}, {"name": "conv_34", "class_name": "Conv2D", "config": {"name": "conv_34", "trainable": true, "dtype": "float32", "filters": 128, "kernel_size": [1, 1], "strides": [1, 1], "padding": "same", "data_format": "channels_last", "dilation_rate": [1, 1], "activation": "linear", "use_bias": false, "kernel_initializer": {"class_name": "VarianceScaling", "config": {"scale": 1.0, "mode": "fan_avg", "distribution": "uniform", "seed": null}}, "bias_initializer": {"class_name": "Zeros", "config": {}}, "kernel_regularizer": null, "bias_regularizer": null, "activity_regularizer": null, "kernel_constraint": null, "bias_constraint": null}, "inbound_nodes": [[["add_10", 0, 0, {}]]]}, {"name": "bnorm_34", "class_name": "BatchNormalization", "config": {"name": "bnorm_34", "trainable": true, "dtype": "float32", "axis": -1, "momentum": 0.99, "epsilon": 0.001, "center": true, "scale": true, "beta_initializer": {"class_name": "Zeros", "config": {}}, "gamma_initializer": {"class_name": "Ones", "config": {}}, "moving_mean_initializer": {"class_name": "Zeros", "config": {}}, "moving_variance_initializer": {"class_name": "Ones", "config": {}}, "beta_regularizer": null, "gamma_regularizer": null, "beta_constraint": null, "gamma_constraint": null}, "inbound_nodes": [[["conv_34", 0, 0, {}]]]}, {"name": "leaky_34", "class_name": "LeakyReLU", "config": {"name": "leaky_34", "trainable": true, "dtype": "float32", "alpha": 0.10000000149011612}, "inbound_nodes": [[["bnorm_34", 0, 0, {}]]]}, {"name": "conv_35", "class_name": "Conv2D", "config": {"name": "conv_35", "trainable": true, "dtype": "float32", "filters": 256, "kernel_size": [3, 3], "strides": [1, 1], "padding": "same", "data_format": "channels_last", "dilation_rate": [1, 1], "activation": "linear", "use_bias": false, "kernel_initializer": {"class_name": "VarianceScaling", "config": {"scale": 1.0, "mode": "fan_avg", "distribution": "uniform", "seed": null}}, "bias_initializer": {"class_name": "Zeros", "config": {}}, "kernel_regularizer": null, "bias_regularizer": null, "activity_regularizer": null, "kernel_constraint": null, "bias_constraint": null}, "inbound_nodes": [[["leaky_34", 0, 0, {}]]]}, {"name": "bnorm_35", "class_name": "BatchNormalization", "config": {"name": "bnorm_35", "trainable": true, "dtype": "float32", "axis": -1, "momentum": 0.99, "epsilon": 0.001, "center": true, "scale": true, "beta_initializer": {"class_name": "Zeros", "config": {}}, "gamma_initializer": {"class_name": "Ones", "config": {}}, "moving_mean_initializer": {"class_name": "Zeros", "config": {}}, "moving_variance_initializer": {"class_name": "Ones", "config": {}}, "beta_regularizer": null, "gamma_regularizer": null, "beta_constraint": null, "gamma_constraint": null}, "inbound_nodes": [[["conv_35", 0, 0, {}]]]}, {"name": "leaky_35", "class_name": "LeakyReLU", "config": {"name": "leaky_35", "trainable": true, "dtype": "float32", "alpha": 0.10000000149011612}, "inbound_nodes": [[["bnorm_35", 0, 0, {}]]]}, {"name": "add_11", "class_name": "Add", "config": {"name": "add_11", "trainable": true, "dtype": "float32"}, "inbound_nodes": [[["add_10", 0, 0, {}], ["leaky_35", 0, 0, {}]]]}, {"name": "zero_padding2d_4", "class_name": "ZeroPadding2D", "config": {"name": "zero_padding2d_4", "trainable": true, "dtype": "float32", "padding": [[1, 0], [1, 0]], "data_format": "channels_last"}, "inbound_nodes": [[["add_11", 0, 0, {}]]]}, {"name": "conv_37", "class_name": "Conv2D", "config": {"name": "conv_37", "trainable": true, "dtype": "float32", "filters": 512, "kernel_size": [3, 3], "strides": [2, 2], "padding": "valid", "data_format": "channels_last", "dilation_rate": [1, 1], "activation": "linear", "use_bias": false, "kernel_initializer": {"class_name": "VarianceScaling", "config": {"scale": 1.0, "mode": "fan_avg", "distribution": "uniform", "seed": null}}, "bias_initializer": {"class_name": "Zeros", "config": {}}, "kernel_regularizer": null, "bias_regularizer": null, "activity_regularizer": null, "kernel_constraint": null, "bias_constraint": null}, "inbound_nodes": [[["zero_padding2d_4", 0, 0, {}]]]}, {"name": "bnorm_37", "class_name": "BatchNormalization", "config": {"name": "bnorm_37", "trainable": true, "dtype": "float32", "axis": -1, "momentum": 0.99, "epsilon": 0.001, "center": true, "scale": true, "beta_initializer": {"class_name": "Zeros", "config": {}}, "gamma_initializer": {"class_name": "Ones", "config": {}}, "moving_mean_initializer": {"class_name": "Zeros", "config": {}}, "moving_variance_initializer": {"class_name": "Ones", "config": {}}, "beta_regularizer": null, "gamma_regularizer": null, "beta_constraint": null, "gamma_constraint": null}, "inbound_nodes": [[["conv_37", 0, 0, {}]]]}, {"name": "leaky_37", "class_name": "LeakyReLU", "config": {"name": "leaky_37", "trainable": true, "dtype": "float32", "alpha": 0.10000000149011612}, "inbound_nodes": [[["bnorm_37", 0, 0, {}]]]}, {"name": "conv_38", "class_name": "Conv2D", "config": {"name": "conv_38", "trainable": true, "dtype": "float32", "filters": 256, "kernel_size": [1, 1], "strides": [1, 1], "padding": "same", "data_format": "channels_last", "dilation_rate": [1, 1], "activation": "linear", "use_bias": false, "kernel_initializer": {"class_name": "VarianceScaling", "config": {"scale": 1.0, "mode": "fan_avg", "distribution": "uniform", "seed": null}}, "bias_initializer": {"class_name": "Zeros", "config": {}}, "kernel_regularizer": null, "bias_regularizer": null, "activity_regularizer": null, "kernel_constraint": null, "bias_constraint": null}, "inbound_nodes": [[["leaky_37", 0, 0, {}]]]}, {"name": "bnorm_38", "class_name": "BatchNormalization", "config": {"name": "bnorm_38", "trainable": true, "dtype": "float32", "axis": -1, "momentum": 0.99, "epsilon": 0.001, "center": true, "scale": true, "beta_initializer": {"class_name": "Zeros", "config": {}}, "gamma_initializer": {"class_name": "Ones", "config": {}}, "moving_mean_initializer": {"class_name": "Zeros", "config": {}}, "moving_variance_initializer": {"class_name": "Ones", "config": {}}, "beta_regularizer": null, "gamma_regularizer": null, "beta_constraint": null, "gamma_constraint": null}, "inbound_nodes": [[["conv_38", 0, 0, {}]]]}, {"name": "leaky_38", "class_name": "LeakyReLU", "config": {"name": "leaky_38", "trainable": true, "dtype": "float32", "alpha": 0.10000000149011612}, "inbound_nodes": [[["bnorm_38", 0, 0, {}]]]}, {"name": "conv_39", "class_name": "Conv2D", "config": {"name": "conv_39", "trainable": true, "dtype": "float32", "filters": 512, "kernel_size": [3, 3], "strides": [1, 1], "padding": "same", "data_format": "channels_last", "dilation_rate": [1, 1], "activation": "linear", "use_bias": false, "kernel_initializer": {"class_name": "VarianceScaling", "config": {"scale": 1.0, "mode": "fan_avg", "distribution": "uniform", "seed": null}}, "bias_initializer": {"class_name": "Zeros", "config": {}}, "kernel_regularizer": null, "bias_regularizer": null, "activity_regularizer": null, "kernel_constraint": null, "bias_constraint": null}, "inbound_nodes": [[["leaky_38", 0, 0, {}]]]}, {"name": "bnorm_39", "class_name": "BatchNormalization", "config": {"name": "bnorm_39", "trainable": true, "dtype": "float32", "axis": -1, "momentum": 0.99, "epsilon": 0.001, "center": true, "scale": true, "beta_initializer": {"class_name": "Zeros", "config": {}}, "gamma_initializer": {"class_name": "Ones", "config": {}}, "moving_mean_initializer": {"class_name": "Zeros", "config": {}}, "moving_variance_initializer": {"class_name": "Ones", "config": {}}, "beta_regularizer": null, "gamma_regularizer": null, "beta_constraint": null, "gamma_constraint": null}, "inbound_nodes": [[["conv_39", 0, 0, {}]]]}, {"name": "leaky_39", "class_name": "LeakyReLU", "config": {"name": "leaky_39", "trainable": true, "dtype": "float32", "alpha": 0.10000000149011612}, "inbound_nodes": [[["bnorm_39", 0, 0, {}]]]}, {"name": "add_12", "class_name": "Add", "config": {"name": "add_12", "trainable": true, "dtype": "float32"}, "inbound_nodes": [[["leaky_37", 0, 0, {}], ["leaky_39", 0, 0, {}]]]}, {"name": "conv_41", "class_name": "Conv2D", "config": {"name": "conv_41", "trainable": true, "dtype": "float32", "filters": 256, "kernel_size": [1, 1], "strides": [1, 1], "padding": "same", "data_format": "channels_last", "dilation_rate": [1, 1], "activation": "linear", "use_bias": false, "kernel_initializer": {"class_name": "VarianceScaling", "config": {"scale": 1.0, "mode": "fan_avg", "distribution": "uniform", "seed": null}}, "bias_initializer": {"class_name": "Zeros", "config": {}}, "kernel_regularizer": null, "bias_regularizer": null, "activity_regularizer": null, "kernel_constraint": null, "bias_constraint": null}, "inbound_nodes": [[["add_12", 0, 0, {}]]]}, {"name": "bnorm_41", "class_name": "BatchNormalization", "config": {"name": "bnorm_41", "trainable": true, "dtype": "float32", "axis": -1, "momentum": 0.99, "epsilon": 0.001, "center": true, "scale": true, "beta_initializer": {"class_name": "Zeros", "config": {}}, "gamma_initializer": {"class_name": "Ones", "config": {}}, "moving_mean_initializer": {"class_name": "Zeros", "config": {}}, "moving_variance_initializer": {"class_name": "Ones", "config": {}}, "beta_regularizer": null, "gamma_regularizer": null, "beta_constraint": null, "gamma_constraint": null}, "inbound_nodes": [[["conv_41", 0, 0, {}]]]}, {"name": "leaky_41", "class_name": "LeakyReLU", "config": {"name": "leaky_41", "trainable": true, "dtype": "float32", "alpha": 0.10000000149011612}, "inbound_nodes": [[["bnorm_41", 0, 0, {}]]]}, {"name": "conv_42", "class_name": "Conv2D", "config": {"name": "conv_42", "trainable": true, "dtype": "float32", "filters": 512, "kernel_size": [3, 3], "strides": [1, 1], "padding": "same", "data_format": "channels_last", "dilation_rate": [1, 1], "activation": "linear", "use_bias": false, "kernel_initializer": {"class_name": "VarianceScaling", "config": {"scale": 1.0, "mode": "fan_avg", "distribution": "uniform", "seed": null}}, "bias_initializer": {"class_name": "Zeros", "config": {}}, "kernel_regularizer": null, "bias_regularizer": null, "activity_regularizer": null, "kernel_constraint": null, "bias_constraint": null}, "inbound_nodes": [[["leaky_41", 0, 0, {}]]]}, {"name": "bnorm_42", "class_name": "BatchNormalization", "config": {"name": "bnorm_42", "trainable": true, "dtype": "float32", "axis": -1, "momentum": 0.99, "epsilon": 0.001, "center": true, "scale": true, "beta_initializer": {"class_name": "Zeros", "config": {}}, "gamma_initializer": {"class_name": "Ones", "config": {}}, "moving_mean_initializer": {"class_name": "Zeros", "config": {}}, "moving_variance_initializer": {"class_name": "Ones", "config": {}}, "beta_regularizer": null, "gamma_regularizer": null, "beta_constraint": null, "gamma_constraint": null}, "inbound_nodes": [[["conv_42", 0, 0, {}]]]}, {"name": "leaky_42", "class_name": "LeakyReLU", "config": {"name": "leaky_42", "trainable": true, "dtype": "float32", "alpha": 0.10000000149011612}, "inbound_nodes": [[["bnorm_42", 0, 0, {}]]]}, {"name": "add_13", "class_name": "Add", "config": {"name": "add_13", "trainable": true, "dtype": "float32"}, "inbound_nodes": [[["add_12", 0, 0, {}], ["leaky_42", 0, 0, {}]]]}, {"name": "conv_44", "class_name": "Conv2D", "config": {"name": "conv_44", "trainable": true, "dtype": "float32", "filters": 256, "kernel_size": [1, 1], "strides": [1, 1], "padding": "same", "data_format": "channels_last", "dilation_rate": [1, 1], "activation": "linear", "use_bias": false, "kernel_initializer": {"class_name": "VarianceScaling", "config": {"scale": 1.0, "mode": "fan_avg", "distribution": "uniform", "seed": null}}, "bias_initializer": {"class_name": "Zeros", "config": {}}, "kernel_regularizer": null, "bias_regularizer": null, "activity_regularizer": null, "kernel_constraint": null, "bias_constraint": null}, "inbound_nodes": [[["add_13", 0, 0, {}]]]}, {"name": "bnorm_44", "class_name": "BatchNormalization", "config": {"name": "bnorm_44", "trainable": true, "dtype": "float32", "axis": -1, "momentum": 0.99, "epsilon": 0.001, "center": true, "scale": true, "beta_initializer": {"class_name": "Zeros", "config": {}}, "gamma_initializer": {"class_name": "Ones", "config": {}}, "moving_mean_initializer": {"class_name": "Zeros", "config": {}}, "moving_variance_initializer": {"class_name": "Ones", "config": {}}, "beta_regularizer": null, "gamma_regularizer": null, "beta_constraint": null, "gamma_constraint": null}, "inbound_nodes": [[["conv_44", 0, 0, {}]]]}, {"name": "leaky_44", "class_name": "LeakyReLU", "config": {"name": "leaky_44", "trainable": true, "dtype": "float32", "alpha": 0.10000000149011612}, "inbound_nodes": [[["bnorm_44", 0, 0, {}]]]}, {"name": "conv_45", "class_name": "Conv2D", "config": {"name": "conv_45", "trainable": true, "dtype": "float32", "filters": 512, "kernel_size": [3, 3], "strides": [1, 1], "padding": "same", "data_format": "channels_last", "dilation_rate": [1, 1], "activation": "linear", "use_bias": false, "kernel_initializer": {"class_name": "VarianceScaling", "config": {"scale": 1.0, "mode": "fan_avg", "distribution": "uniform", "seed": null}}, "bias_initializer": {"class_name": "Zeros", "config": {}}, "kernel_regularizer": null, "bias_regularizer": null, "activity_regularizer": null, "kernel_constraint": null, "bias_constraint": null}, "inbound_nodes": [[["leaky_44", 0, 0, {}]]]}, {"name": "bnorm_45", "class_name": "BatchNormalization", "config": {"name": "bnorm_45", "trainable": true, "dtype": "float32", "axis": -1, "momentum": 0.99, "epsilon": 0.001, "center": true, "scale": true, "beta_initializer": {"class_name": "Zeros", "config": {}}, "gamma_initializer": {"class_name": "Ones", "config": {}}, "moving_mean_initializer": {"class_name": "Zeros", "config": {}}, "moving_variance_initializer": {"class_name": "Ones", "config": {}}, "beta_regularizer": null, "gamma_regularizer": null, "beta_constraint": null, "gamma_constraint": null}, "inbound_nodes": [[["conv_45", 0, 0, {}]]]}, {"name": "leaky_45", "class_name": "LeakyReLU", "config": {"name": "leaky_45", "trainable": true, "dtype": "float32", "alpha": 0.10000000149011612}, "inbound_nodes": [[["bnorm_45", 0, 0, {}]]]}, {"name": "add_14", "class_name": "Add", "config": {"name": "add_14", "trainable": true, "dtype": "float32"}, "inbound_nodes": [[["add_13", 0, 0, {}], ["leaky_45", 0, 0, {}]]]}, {"name": "conv_47", "class_name": "Conv2D", "config": {"name": "conv_47", "trainable": true, "dtype": "float32", "filters": 256, "kernel_size": [1, 1], "strides": [1, 1], "padding": "same", "data_format": "channels_last", "dilation_rate": [1, 1], "activation": "linear", "use_bias": false, "kernel_initializer": {"class_name": "VarianceScaling", "config": {"scale": 1.0, "mode": "fan_avg", "distribution": "uniform", "seed": null}}, "bias_initializer": {"class_name": "Zeros", "config": {}}, "kernel_regularizer": null, "bias_regularizer": null, "activity_regularizer": null, "kernel_constraint": null, "bias_constraint": null}, "inbound_nodes": [[["add_14", 0, 0, {}]]]}, {"name": "bnorm_47", "class_name": "BatchNormalization", "config": {"name": "bnorm_47", "trainable": true, "dtype": "float32", "axis": -1, "momentum": 0.99, "epsilon": 0.001, "center": true, "scale": true, "beta_initializer": {"class_name": "Zeros", "config": {}}, "gamma_initializer": {"class_name": "Ones", "config": {}}, "moving_mean_initializer": {"class_name": "Zeros", "config": {}}, "moving_variance_initializer": {"class_name": "Ones", "config": {}}, "beta_regularizer": null, "gamma_regularizer": null, "beta_constraint": null, "gamma_constraint": null}, "inbound_nodes": [[["conv_47", 0, 0, {}]]]}, {"name": "leaky_47", "class_name": "LeakyReLU", "config": {"name": "leaky_47", "trainable": true, "dtype": "float32", "alpha": 0.10000000149011612}, "inbound_nodes": [[["bnorm_47", 0, 0, {}]]]}, {"name": "conv_48", "class_name": "Conv2D", "config": {"name": "conv_48", "trainable": true, "dtype": "float32", "filters": 512, "kernel_size": [3, 3], "strides": [1, 1], "padding": "same", "data_format": "channels_last", "dilation_rate": [1, 1], "activation": "linear", "use_bias": false, "kernel_initializer": {"class_name": "VarianceScaling", "config": {"scale": 1.0, "mode": "fan_avg", "distribution": "uniform", "seed": null}}, "bias_initializer": {"class_name": "Zeros", "config": {}}, "kernel_regularizer": null, "bias_regularizer": null, "activity_regularizer": null, "kernel_constraint": null, "bias_constraint": null}, "inbound_nodes": [[["leaky_47", 0, 0, {}]]]}, {"name": "bnorm_48", "class_name": "BatchNormalization", "config": {"name": "bnorm_48", "trainable": true, "dtype": "float32", "axis": -1, "momentum": 0.99, "epsilon": 0.001, "center": true, "scale": true, "beta_initializer": {"class_name": "Zeros", "config": {}}, "gamma_initializer": {"class_name": "Ones", "config": {}}, "moving_mean_initializer": {"class_name": "Zeros", "config": {}}, "moving_variance_initializer": {"class_name": "Ones", "config": {}}, "beta_regularizer": null, "gamma_regularizer": null, "beta_constraint": null, "gamma_constraint": null}, "inbound_nodes": [[["conv_48", 0, 0, {}]]]}, {"name": "leaky_48", "class_name": "LeakyReLU", "config": {"name": "leaky_48", "trainable": true, "dtype": "float32", "alpha": 0.10000000149011612}, "inbound_nodes": [[["bnorm_48", 0, 0, {}]]]}, {"name": "add_15", "class_name": "Add", "config": {"name": "add_15", "trainable": true, "dtype": "float32"}, "inbound_nodes": [[["add_14", 0, 0, {}], ["leaky_48", 0, 0, {}]]]}, {"name": "conv_50", "class_name": "Conv2D", "config": {"name": "conv_50", "trainable": true, "dtype": "float32", "filters": 256, "kernel_size": [1, 1], "strides": [1, 1], "padding": "same", "data_format": "channels_last", "dilation_rate": [1, 1], "activation": "linear", "use_bias": false, "kernel_initializer": {"class_name": "VarianceScaling", "config": {"scale": 1.0, "mode": "fan_avg", "distribution": "uniform", "seed": null}}, "bias_initializer": {"class_name": "Zeros", "config": {}}, "kernel_regularizer": null, "bias_regularizer": null, "activity_regularizer": null, "kernel_constraint": null, "bias_constraint": null}, "inbound_nodes": [[["add_15", 0, 0, {}]]]}, {"name": "bnorm_50", "class_name": "BatchNormalization", "config": {"name": "bnorm_50", "trainable": true, "dtype": "float32", "axis": -1, "momentum": 0.99, "epsilon": 0.001, "center": true, "scale": true, "beta_initializer": {"class_name": "Zeros", "config": {}}, "gamma_initializer": {"class_name": "Ones", "config": {}}, "moving_mean_initializer": {"class_name": "Zeros", "config": {}}, "moving_variance_initializer": {"class_name": "Ones", "config": {}}, "beta_regularizer": null, "gamma_regularizer": null, "beta_constraint": null, "gamma_constraint": null}, "inbound_nodes": [[["conv_50", 0, 0, {}]]]}, {"name": "leaky_50", "class_name": "LeakyReLU", "config": {"name": "leaky_50", "trainable": true, "dtype": "float32", "alpha": 0.10000000149011612}, "inbound_nodes": [[["bnorm_50", 0, 0, {}]]]}, {"name": "conv_51", "class_name": "Conv2D", "config": {"name": "conv_51", "trainable": true, "dtype": "float32", "filters": 512, "kernel_size": [3, 3], "strides": [1, 1], "padding": "same", "data_format": "channels_last", "dilation_rate": [1, 1], "activation": "linear", "use_bias": false, "kernel_initializer": {"class_name": "VarianceScaling", "config": {"scale": 1.0, "mode": "fan_avg", "distribution": "uniform", "seed": null}}, "bias_initializer": {"class_name": "Zeros", "config": {}}, "kernel_regularizer": null, "bias_regularizer": null, "activity_regularizer": null, "kernel_constraint": null, "bias_constraint": null}, "inbound_nodes": [[["leaky_50", 0, 0, {}]]]}, {"name": "bnorm_51", "class_name": "BatchNormalization", "config": {"name": "bnorm_51", "trainable": true, "dtype": "float32", "axis": -1, "momentum": 0.99, "epsilon": 0.001, "center": true, "scale": true, "beta_initializer": {"class_name": "Zeros", "config": {}}, "gamma_initializer": {"class_name": "Ones", "config": {}}, "moving_mean_initializer": {"class_name": "Zeros", "config": {}}, "moving_variance_initializer": {"class_name": "Ones", "config": {}}, "beta_regularizer": null, "gamma_regularizer": null, "beta_constraint": null, "gamma_constraint": null}, "inbound_nodes": [[["conv_51", 0, 0, {}]]]}, {"name": "leaky_51", "class_name": "LeakyReLU", "config": {"name": "leaky_51", "trainable": true, "dtype": "float32", "alpha": 0.10000000149011612}, "inbound_nodes": [[["bnorm_51", 0, 0, {}]]]}, {"name": "add_16", "class_name": "Add", "config": {"name": "add_16", "trainable": true, "dtype": "float32"}, "inbound_nodes": [[["add_15", 0, 0, {}], ["leaky_51", 0, 0, {}]]]}, {"name": "conv_53", "class_name": "Conv2D", "config": {"name": "conv_53", "trainable": true, "dtype": "float32", "filters": 256, "kernel_size": [1, 1], "strides": [1, 1], "padding": "same", "data_format": "channels_last", "dilation_rate": [1, 1], "activation": "linear", "use_bias": false, "kernel_initializer": {"class_name": "VarianceScaling", "config": {"scale": 1.0, "mode": "fan_avg", "distribution": "uniform", "seed": null}}, "bias_initializer": {"class_name": "Zeros", "config": {}}, "kernel_regularizer": null, "bias_regularizer": null, "activity_regularizer": null, "kernel_constraint": null, "bias_constraint": null}, "inbound_nodes": [[["add_16", 0, 0, {}]]]}, {"name": "bnorm_53", "class_name": "BatchNormalization", "config": {"name": "bnorm_53", "trainable": true, "dtype": "float32", "axis": -1, "momentum": 0.99, "epsilon": 0.001, "center": true, "scale": true, "beta_initializer": {"class_name": "Zeros", "config": {}}, "gamma_initializer": {"class_name": "Ones", "config": {}}, "moving_mean_initializer": {"class_name": "Zeros", "config": {}}, "moving_variance_initializer": {"class_name": "Ones", "config": {}}, "beta_regularizer": null, "gamma_regularizer": null, "beta_constraint": null, "gamma_constraint": null}, "inbound_nodes": [[["conv_53", 0, 0, {}]]]}, {"name": "leaky_53", "class_name": "LeakyReLU", "config": {"name": "leaky_53", "trainable": true, "dtype": "float32", "alpha": 0.10000000149011612}, "inbound_nodes": [[["bnorm_53", 0, 0, {}]]]}, {"name": "conv_54", "class_name": "Conv2D", "config": {"name": "conv_54", "trainable": true, "dtype": "float32", "filters": 512, "kernel_size": [3, 3], "strides": [1, 1], "padding": "same", "data_format": "channels_last", "dilation_rate": [1, 1], "activation": "linear", "use_bias": false, "kernel_initializer": {"class_name": "VarianceScaling", "config": {"scale": 1.0, "mode": "fan_avg", "distribution": "uniform", "seed": null}}, "bias_initializer": {"class_name": "Zeros", "config": {}}, "kernel_regularizer": null, "bias_regularizer": null, "activity_regularizer": null, "kernel_constraint": null, "bias_constraint": null}, "inbound_nodes": [[["leaky_53", 0, 0, {}]]]}, {"name": "bnorm_54", "class_name": "BatchNormalization", "config": {"name": "bnorm_54", "trainable": true, "dtype": "float32", "axis": -1, "momentum": 0.99, "epsilon": 0.001, "center": true, "scale": true, "beta_initializer": {"class_name": "Zeros", "config": {}}, "gamma_initializer": {"class_name": "Ones", "config": {}}, "moving_mean_initializer": {"class_name": "Zeros", "config": {}}, "moving_variance_initializer": {"class_name": "Ones", "config": {}}, "beta_regularizer": null, "gamma_regularizer": null, "beta_constraint": null, "gamma_constraint": null}, "inbound_nodes": [[["conv_54", 0, 0, {}]]]}, {"name": "leaky_54", "class_name": "LeakyReLU", "config": {"name": "leaky_54", "trainable": true, "dtype": "float32", "alpha": 0.10000000149011612}, "inbound_nodes": [[["bnorm_54", 0, 0, {}]]]}, {"name": "add_17", "class_name": "Add", "config": {"name": "add_17", "trainable": true, "dtype": "float32"}, "inbound_nodes": [[["add_16", 0, 0, {}], ["leaky_54", 0, 0, {}]]]}, {"name": "conv_56", "class_name": "Conv2D", "config": {"name": "conv_56", "trainable": true, "dtype": "float32", "filters": 256, "kernel_size": [1, 1], "strides": [1, 1], "padding": "same", "data_format": "channels_last", "dilation_rate": [1, 1], "activation": "linear", "use_bias": false, "kernel_initializer": {"class_name": "VarianceScaling", "config": {"scale": 1.0, "mode": "fan_avg", "distribution": "uniform", "seed": null}}, "bias_initializer": {"class_name": "Zeros", "config": {}}, "kernel_regularizer": null, "bias_regularizer": null, "activity_regularizer": null, "kernel_constraint": null, "bias_constraint": null}, "inbound_nodes": [[["add_17", 0, 0, {}]]]}, {"name": "bnorm_56", "class_name": "BatchNormalization", "config": {"name": "bnorm_56", "trainable": true, "dtype": "float32", "axis": -1, "momentum": 0.99, "epsilon": 0.001, "center": true, "scale": true, "beta_initializer": {"class_name": "Zeros", "config": {}}, "gamma_initializer": {"class_name": "Ones", "config": {}}, "moving_mean_initializer": {"class_name": "Zeros", "config": {}}, "moving_variance_initializer": {"class_name": "Ones", "config": {}}, "beta_regularizer": null, "gamma_regularizer": null, "beta_constraint": null, "gamma_constraint": null}, "inbound_nodes": [[["conv_56", 0, 0, {}]]]}, {"name": "leaky_56", "class_name": "LeakyReLU", "config": {"name": "leaky_56", "trainable": true, "dtype": "float32", "alpha": 0.10000000149011612}, "inbound_nodes": [[["bnorm_56", 0, 0, {}]]]}, {"name": "conv_57", "class_name": "Conv2D", "config": {"name": "conv_57", "trainable": true, "dtype": "float32", "filters": 512, "kernel_size": [3, 3], "strides": [1, 1], "padding": "same", "data_format": "channels_last", "dilation_rate": [1, 1], "activation": "linear", "use_bias": false, "kernel_initializer": {"class_name": "VarianceScaling", "config": {"scale": 1.0, "mode": "fan_avg", "distribution": "uniform", "seed": null}}, "bias_initializer": {"class_name": "Zeros", "config": {}}, "kernel_regularizer": null, "bias_regularizer": null, "activity_regularizer": null, "kernel_constraint": null, "bias_constraint": null}, "inbound_nodes": [[["leaky_56", 0, 0, {}]]]}, {"name": "bnorm_57", "class_name": "BatchNormalization", "config": {"name": "bnorm_57", "trainable": true, "dtype": "float32", "axis": -1, "momentum": 0.99, "epsilon": 0.001, "center": true, "scale": true, "beta_initializer": {"class_name": "Zeros", "config": {}}, "gamma_initializer": {"class_name": "Ones", "config": {}}, "moving_mean_initializer": {"class_name": "Zeros", "config": {}}, "moving_variance_initializer": {"class_name": "Ones", "config": {}}, "beta_regularizer": null, "gamma_regularizer": null, "beta_constraint": null, "gamma_constraint": null}, "inbound_nodes": [[["conv_57", 0, 0, {}]]]}, {"name": "leaky_57", "class_name": "LeakyReLU", "config": {"name": "leaky_57", "trainable": true, "dtype": "float32", "alpha": 0.10000000149011612}, "inbound_nodes": [[["bnorm_57", 0, 0, {}]]]}, {"name": "add_18", "class_name": "Add", "config": {"name": "add_18", "trainable": true, "dtype": "float32"}, "inbound_nodes": [[["add_17", 0, 0, {}], ["leaky_57", 0, 0, {}]]]}, {"name": "conv_59", "class_name": "Conv2D", "config": {"name": "conv_59", "trainable": true, "dtype": "float32", "filters": 256, "kernel_size": [1, 1], "strides": [1, 1], "padding": "same", "data_format": "channels_last", "dilation_rate": [1, 1], "activation": "linear", "use_bias": false, "kernel_initializer": {"class_name": "VarianceScaling", "config": {"scale": 1.0, "mode": "fan_avg", "distribution": "uniform", "seed": null}}, "bias_initializer": {"class_name": "Zeros", "config": {}}, "kernel_regularizer": null, "bias_regularizer": null, "activity_regularizer": null, "kernel_constraint": null, "bias_constraint": null}, "inbound_nodes": [[["add_18", 0, 0, {}]]]}, {"name": "bnorm_59", "class_name": "BatchNormalization", "config": {"name": "bnorm_59", "trainable": true, "dtype": "float32", "axis": -1, "momentum": 0.99, "epsilon": 0.001, "center": true, "scale": true, "beta_initializer": {"class_name": "Zeros", "config": {}}, "gamma_initializer": {"class_name": "Ones", "config": {}}, "moving_mean_initializer": {"class_name": "Zeros", "config": {}}, "moving_variance_initializer": {"class_name": "Ones", "config": {}}, "beta_regularizer": null, "gamma_regularizer": null, "beta_constraint": null, "gamma_constraint": null}, "inbound_nodes": [[["conv_59", 0, 0, {}]]]}, {"name": "leaky_59", "class_name": "LeakyReLU", "config": {"name": "leaky_59", "trainable": true, "dtype": "float32", "alpha": 0.10000000149011612}, "inbound_nodes": [[["bnorm_59", 0, 0, {}]]]}, {"name": "conv_60", "class_name": "Conv2D", "config": {"name": "conv_60", "trainable": true, "dtype": "float32", "filters": 512, "kernel_size": [3, 3], "strides": [1, 1], "padding": "same", "data_format": "channels_last", "dilation_rate": [1, 1], "activation": "linear", "use_bias": false, "kernel_initializer": {"class_name": "VarianceScaling", "config": {"scale": 1.0, "mode": "fan_avg", "distribution": "uniform", "seed": null}}, "bias_initializer": {"class_name": "Zeros", "config": {}}, "kernel_regularizer": null, "bias_regularizer": null, "activity_regularizer": null, "kernel_constraint": null, "bias_constraint": null}, "inbound_nodes": [[["leaky_59", 0, 0, {}]]]}, {"name": "bnorm_60", "class_name": "BatchNormalization", "config": {"name": "bnorm_60", "trainable": true, "dtype": "float32", "axis": -1, "momentum": 0.99, "epsilon": 0.001, "center": true, "scale": true, "beta_initializer": {"class_name": "Zeros", "config": {}}, "gamma_initializer": {"class_name": "Ones", "config": {}}, "moving_mean_initializer": {"class_name": "Zeros", "config": {}}, "moving_variance_initializer": {"class_name": "Ones", "config": {}}, "beta_regularizer": null, "gamma_regularizer": null, "beta_constraint": null, "gamma_constraint": null}, "inbound_nodes": [[["conv_60", 0, 0, {}]]]}, {"name": "leaky_60", "class_name": "LeakyReLU", "config": {"name": "leaky_60", "trainable": true, "dtype": "float32", "alpha": 0.10000000149011612}, "inbound_nodes": [[["bnorm_60", 0, 0, {}]]]}, {"name": "add_19", "class_name": "Add", "config": {"name": "add_19", "trainable": true, "dtype": "float32"}, "inbound_nodes": [[["add_18", 0, 0, {}], ["leaky_60", 0, 0, {}]]]}, {"name": "zero_padding2d_5", "class_name": "ZeroPadding2D", "config": {"name": "zero_padding2d_5", "trainable": true, "dtype": "float32", "padding": [[1, 0], [1, 0]], "data_format": "channels_last"}, "inbound_nodes": [[["add_19", 0, 0, {}]]]}, {"name": "conv_62", "class_name": "Conv2D", "config": {"name": "conv_62", "trainable": true, "dtype": "float32", "filters": 1024, "kernel_size": [3, 3], "strides": [2, 2], "padding": "valid", "data_format": "channels_last", "dilation_rate": [1, 1], "activation": "linear", "use_bias": false, "kernel_initializer": {"class_name": "VarianceScaling", "config": {"scale": 1.0, "mode": "fan_avg", "distribution": "uniform", "seed": null}}, "bias_initializer": {"class_name": "Zeros", "config": {}}, "kernel_regularizer": null, "bias_regularizer": null, "activity_regularizer": null, "kernel_constraint": null, "bias_constraint": null}, "inbound_nodes": [[["zero_padding2d_5", 0, 0, {}]]]}, {"name": "bnorm_62", "class_name": "BatchNormalization", "config": {"name": "bnorm_62", "trainable": true, "dtype": "float32", "axis": -1, "momentum": 0.99, "epsilon": 0.001, "center": true, "scale": true, "beta_initializer": {"class_name": "Zeros", "config": {}}, "gamma_initializer": {"class_name": "Ones", "config": {}}, "moving_mean_initializer": {"class_name": "Zeros", "config": {}}, "moving_variance_initializer": {"class_name": "Ones", "config": {}}, "beta_regularizer": null, "gamma_regularizer": null, "beta_constraint": null, "gamma_constraint": null}, "inbound_nodes": [[["conv_62", 0, 0, {}]]]}, {"name": "leaky_62", "class_name": "LeakyReLU", "config": {"name": "leaky_62", "trainable": true, "dtype": "float32", "alpha": 0.10000000149011612}, "inbound_nodes": [[["bnorm_62", 0, 0, {}]]]}, {"name": "conv_63", "class_name": "Conv2D", "config": {"name": "conv_63", "trainable": true, "dtype": "float32", "filters": 512, "kernel_size": [1, 1], "strides": [1, 1], "padding": "same", "data_format": "channels_last", "dilation_rate": [1, 1], "activation": "linear", "use_bias": false, "kernel_initializer": {"class_name": "VarianceScaling", "config": {"scale": 1.0, "mode": "fan_avg", "distribution": "uniform", "seed": null}}, "bias_initializer": {"class_name": "Zeros", "config": {}}, "kernel_regularizer": null, "bias_regularizer": null, "activity_regularizer": null, "kernel_constraint": null, "bias_constraint": null}, "inbound_nodes": [[["leaky_62", 0, 0, {}]]]}, {"name": "bnorm_63", "class_name": "BatchNormalization", "config": {"name": "bnorm_63", "trainable": true, "dtype": "float32", "axis": -1, "momentum": 0.99, "epsilon": 0.001, "center": true, "scale": true, "beta_initializer": {"class_name": "Zeros", "config": {}}, "gamma_initializer": {"class_name": "Ones", "config": {}}, "moving_mean_initializer": {"class_name": "Zeros", "config": {}}, "moving_variance_initializer": {"class_name": "Ones", "config": {}}, "beta_regularizer": null, "gamma_regularizer": null, "beta_constraint": null, "gamma_constraint": null}, "inbound_nodes": [[["conv_63", 0, 0, {}]]]}, {"name": "leaky_63", "class_name": "LeakyReLU", "config": {"name": "leaky_63", "trainable": true, "dtype": "float32", "alpha": 0.10000000149011612}, "inbound_nodes": [[["bnorm_63", 0, 0, {}]]]}, {"name": "conv_64", "class_name": "Conv2D", "config": {"name": "conv_64", "trainable": true, "dtype": "float32", "filters": 1024, "kernel_size": [3, 3], "strides": [1, 1], "padding": "same", "data_format": "channels_last", "dilation_rate": [1, 1], "activation": "linear", "use_bias": false, "kernel_initializer": {"class_name": "VarianceScaling", "config": {"scale": 1.0, "mode": "fan_avg", "distribution": "uniform", "seed": null}}, "bias_initializer": {"class_name": "Zeros", "config": {}}, "kernel_regularizer": null, "bias_regularizer": null, "activity_regularizer": null, "kernel_constraint": null, "bias_constraint": null}, "inbound_nodes": [[["leaky_63", 0, 0, {}]]]}, {"name": "bnorm_64", "class_name": "BatchNormalization", "config": {"name": "bnorm_64", "trainable": true, "dtype": "float32", "axis": -1, "momentum": 0.99, "epsilon": 0.001, "center": true, "scale": true, "beta_initializer": {"class_name": "Zeros", "config": {}}, "gamma_initializer": {"class_name": "Ones", "config": {}}, "moving_mean_initializer": {"class_name": "Zeros", "config": {}}, "moving_variance_initializer": {"class_name": "Ones", "config": {}}, "beta_regularizer": null, "gamma_regularizer": null, "beta_constraint": null, "gamma_constraint": null}, "inbound_nodes": [[["conv_64", 0, 0, {}]]]}, {"name": "leaky_64", "class_name": "LeakyReLU", "config": {"name": "leaky_64", "trainable": true, "dtype": "float32", "alpha": 0.10000000149011612}, "inbound_nodes": [[["bnorm_64", 0, 0, {}]]]}, {"name": "add_20", "class_name": "Add", "config": {"name": "add_20", "trainable": true, "dtype": "float32"}, "inbound_nodes": [[["leaky_62", 0, 0, {}], ["leaky_64", 0, 0, {}]]]}, {"name": "conv_66", "class_name": "Conv2D", "config": {"name": "conv_66", "trainable": true, "dtype": "float32", "filters": 512, "kernel_size": [1, 1], "strides": [1, 1], "padding": "same", "data_format": "channels_last", "dilation_rate": [1, 1], "activation": "linear", "use_bias": false, "kernel_initializer": {"class_name": "VarianceScaling", "config": {"scale": 1.0, "mode": "fan_avg", "distribution": "uniform", "seed": null}}, "bias_initializer": {"class_name": "Zeros", "config": {}}, "kernel_regularizer": null, "bias_regularizer": null, "activity_regularizer": null, "kernel_constraint": null, "bias_constraint": null}, "inbound_nodes": [[["add_20", 0, 0, {}]]]}, {"name": "bnorm_66", "class_name": "BatchNormalization", "config": {"name": "bnorm_66", "trainable": true, "dtype": "float32", "axis": -1, "momentum": 0.99, "epsilon": 0.001, "center": true, "scale": true, "beta_initializer": {"class_name": "Zeros", "config": {}}, "gamma_initializer": {"class_name": "Ones", "config": {}}, "moving_mean_initializer": {"class_name": "Zeros", "config": {}}, "moving_variance_initializer": {"class_name": "Ones", "config": {}}, "beta_regularizer": null, "gamma_regularizer": null, "beta_constraint": null, "gamma_constraint": null}, "inbound_nodes": [[["conv_66", 0, 0, {}]]]}, {"name": "leaky_66", "class_name": "LeakyReLU", "config": {"name": "leaky_66", "trainable": true, "dtype": "float32", "alpha": 0.10000000149011612}, "inbound_nodes": [[["bnorm_66", 0, 0, {}]]]}, {"name": "conv_67", "class_name": "Conv2D", "config": {"name": "conv_67", "trainable": true, "dtype": "float32", "filters": 1024, "kernel_size": [3, 3], "strides": [1, 1], "padding": "same", "data_format": "channels_last", "dilation_rate": [1, 1], "activation": "linear", "use_bias": false, "kernel_initializer": {"class_name": "VarianceScaling", "config": {"scale": 1.0, "mode": "fan_avg", "distribution": "uniform", "seed": null}}, "bias_initializer": {"class_name": "Zeros", "config": {}}, "kernel_regularizer": null, "bias_regularizer": null, "activity_regularizer": null, "kernel_constraint": null, "bias_constraint": null}, "inbound_nodes": [[["leaky_66", 0, 0, {}]]]}, {"name": "bnorm_67", "class_name": "BatchNormalization", "config": {"name": "bnorm_67", "trainable": true, "dtype": "float32", "axis": -1, "momentum": 0.99, "epsilon": 0.001, "center": true, "scale": true, "beta_initializer": {"class_name": "Zeros", "config": {}}, "gamma_initializer": {"class_name": "Ones", "config": {}}, "moving_mean_initializer": {"class_name": "Zeros", "config": {}}, "moving_variance_initializer": {"class_name": "Ones", "config": {}}, "beta_regularizer": null, "gamma_regularizer": null, "beta_constraint": null, "gamma_constraint": null}, "inbound_nodes": [[["conv_67", 0, 0, {}]]]}, {"name": "leaky_67", "class_name": "LeakyReLU", "config": {"name": "leaky_67", "trainable": true, "dtype": "float32", "alpha": 0.10000000149011612}, "inbound_nodes": [[["bnorm_67", 0, 0, {}]]]}, {"name": "add_21", "class_name": "Add", "config": {"name": "add_21", "trainable": true, "dtype": "float32"}, "inbound_nodes": [[["add_20", 0, 0, {}], ["leaky_67", 0, 0, {}]]]}, {"name": "conv_69", "class_name": "Conv2D", "config": {"name": "conv_69", "trainable": true, "dtype": "float32", "filters": 512, "kernel_size": [1, 1], "strides": [1, 1], "padding": "same", "data_format": "channels_last", "dilation_rate": [1, 1], "activation": "linear", "use_bias": false, "kernel_initializer": {"class_name": "VarianceScaling", "config": {"scale": 1.0, "mode": "fan_avg", "distribution": "uniform", "seed": null}}, "bias_initializer": {"class_name": "Zeros", "config": {}}, "kernel_regularizer": null, "bias_regularizer": null, "activity_regularizer": null, "kernel_constraint": null, "bias_constraint": null}, "inbound_nodes": [[["add_21", 0, 0, {}]]]}, {"name": "bnorm_69", "class_name": "BatchNormalization", "config": {"name": "bnorm_69", "trainable": true, "dtype": "float32", "axis": -1, "momentum": 0.99, "epsilon": 0.001, "center": true, "scale": true, "beta_initializer": {"class_name": "Zeros", "config": {}}, "gamma_initializer": {"class_name": "Ones", "config": {}}, "moving_mean_initializer": {"class_name": "Zeros", "config": {}}, "moving_variance_initializer": {"class_name": "Ones", "config": {}}, "beta_regularizer": null, "gamma_regularizer": null, "beta_constraint": null, "gamma_constraint": null}, "inbound_nodes": [[["conv_69", 0, 0, {}]]]}, {"name": "leaky_69", "class_name": "LeakyReLU", "config": {"name": "leaky_69", "trainable": true, "dtype": "float32", "alpha": 0.10000000149011612}, "inbound_nodes": [[["bnorm_69", 0, 0, {}]]]}, {"name": "conv_70", "class_name": "Conv2D", "config": {"name": "conv_70", "trainable": true, "dtype": "float32", "filters": 1024, "kernel_size": [3, 3], "strides": [1, 1], "padding": "same", "data_format": "channels_last", "dilation_rate": [1, 1], "activation": "linear", "use_bias": false, "kernel_initializer": {"class_name": "VarianceScaling", "config": {"scale": 1.0, "mode": "fan_avg", "distribution": "uniform", "seed": null}}, "bias_initializer": {"class_name": "Zeros", "config": {}}, "kernel_regularizer": null, "bias_regularizer": null, "activity_regularizer": null, "kernel_constraint": null, "bias_constraint": null}, "inbound_nodes": [[["leaky_69", 0, 0, {}]]]}, {"name": "bnorm_70", "class_name": "BatchNormalization", "config": {"name": "bnorm_70", "trainable": true, "dtype": "float32", "axis": -1, "momentum": 0.99, "epsilon": 0.001, "center": true, "scale": true, "beta_initializer": {"class_name": "Zeros", "config": {}}, "gamma_initializer": {"class_name": "Ones", "config": {}}, "moving_mean_initializer": {"class_name": "Zeros", "config": {}}, "moving_variance_initializer": {"class_name": "Ones", "config": {}}, "beta_regularizer": null, "gamma_regularizer": null, "beta_constraint": null, "gamma_constraint": null}, "inbound_nodes": [[["conv_70", 0, 0, {}]]]}, {"name": "leaky_70", "class_name": "LeakyReLU", "config": {"name": "leaky_70", "trainable": true, "dtype": "float32", "alpha": 0.10000000149011612}, "inbound_nodes": [[["bnorm_70", 0, 0, {}]]]}, {"name": "add_22", "class_name": "Add", "config": {"name": "add_22", "trainable": true, "dtype": "float32"}, "inbound_nodes": [[["add_21", 0, 0, {}], ["leaky_70", 0, 0, {}]]]}, {"name": "conv_72", "class_name": "Conv2D", "config": {"name": "conv_72", "trainable": true, "dtype": "float32", "filters": 512, "kernel_size": [1, 1], "strides": [1, 1], "padding": "same", "data_format": "channels_last", "dilation_rate": [1, 1], "activation": "linear", "use_bias": false, "kernel_initializer": {"class_name": "VarianceScaling", "config": {"scale": 1.0, "mode": "fan_avg", "distribution": "uniform", "seed": null}}, "bias_initializer": {"class_name": "Zeros", "config": {}}, "kernel_regularizer": null, "bias_regularizer": null, "activity_regularizer": null, "kernel_constraint": null, "bias_constraint": null}, "inbound_nodes": [[["add_22", 0, 0, {}]]]}, {"name": "bnorm_72", "class_name": "BatchNormalization", "config": {"name": "bnorm_72", "trainable": true, "dtype": "float32", "axis": -1, "momentum": 0.99, "epsilon": 0.001, "center": true, "scale": true, "beta_initializer": {"class_name": "Zeros", "config": {}}, "gamma_initializer": {"class_name": "Ones", "config": {}}, "moving_mean_initializer": {"class_name": "Zeros", "config": {}}, "moving_variance_initializer": {"class_name": "Ones", "config": {}}, "beta_regularizer": null, "gamma_regularizer": null, "beta_constraint": null, "gamma_constraint": null}, "inbound_nodes": [[["conv_72", 0, 0, {}]]]}, {"name": "leaky_72", "class_name": "LeakyReLU", "config": {"name": "leaky_72", "trainable": true, "dtype": "float32", "alpha": 0.10000000149011612}, "inbound_nodes": [[["bnorm_72", 0, 0, {}]]]}, {"name": "conv_73", "class_name": "Conv2D", "config": {"name": "conv_73", "trainable": true, "dtype": "float32", "filters": 1024, "kernel_size": [3, 3], "strides": [1, 1], "padding": "same", "data_format": "channels_last", "dilation_rate": [1, 1], "activation": "linear", "use_bias": false, "kernel_initializer": {"class_name": "VarianceScaling", "config": {"scale": 1.0, "mode": "fan_avg", "distribution": "uniform", "seed": null}}, "bias_initializer": {"class_name": "Zeros", "config": {}}, "kernel_regularizer": null, "bias_regularizer": null, "activity_regularizer": null, "kernel_constraint": null, "bias_constraint": null}, "inbound_nodes": [[["leaky_72", 0, 0, {}]]]}, {"name": "bnorm_73", "class_name": "BatchNormalization", "config": {"name": "bnorm_73", "trainable": true, "dtype": "float32", "axis": -1, "momentum": 0.99, "epsilon": 0.001, "center": true, "scale": true, "beta_initializer": {"class_name": "Zeros", "config": {}}, "gamma_initializer": {"class_name": "Ones", "config": {}}, "moving_mean_initializer": {"class_name": "Zeros", "config": {}}, "moving_variance_initializer": {"class_name": "Ones", "config": {}}, "beta_regularizer": null, "gamma_regularizer": null, "beta_constraint": null, "gamma_constraint": null}, "inbound_nodes": [[["conv_73", 0, 0, {}]]]}, {"name": "leaky_73", "class_name": "LeakyReLU", "config": {"name": "leaky_73", "trainable": true, "dtype": "float32", "alpha": 0.10000000149011612}, "inbound_nodes": [[["bnorm_73", 0, 0, {}]]]}, {"name": "add_23", "class_name": "Add", "config": {"name": "add_23", "trainable": true, "dtype": "float32"}, "inbound_nodes": [[["add_22", 0, 0, {}], ["leaky_73", 0, 0, {}]]]}, {"name": "conv_75", "class_name": "Conv2D", "config": {"name": "conv_75", "trainable": true, "dtype": "float32", "filters": 512, "kernel_size": [1, 1], "strides": [1, 1], "padding": "same", "data_format": "channels_last", "dilation_rate": [1, 1], "activation": "linear", "use_bias": false, "kernel_initializer": {"class_name": "VarianceScaling", "config": {"scale": 1.0, "mode": "fan_avg", "distribution": "uniform", "seed": null}}, "bias_initializer": {"class_name": "Zeros", "config": {}}, "kernel_regularizer": null, "bias_regularizer": null, "activity_regularizer": null, "kernel_constraint": null, "bias_constraint": null}, "inbound_nodes": [[["add_23", 0, 0, {}]]]}, {"name": "bnorm_75", "class_name": "BatchNormalization", "config": {"name": "bnorm_75", "trainable": true, "dtype": "float32", "axis": -1, "momentum": 0.99, "epsilon": 0.001, "center": true, "scale": true, "beta_initializer": {"class_name": "Zeros", "config": {}}, "gamma_initializer": {"class_name": "Ones", "config": {}}, "moving_mean_initializer": {"class_name": "Zeros", "config": {}}, "moving_variance_initializer": {"class_name": "Ones", "config": {}}, "beta_regularizer": null, "gamma_regularizer": null, "beta_constraint": null, "gamma_constraint": null}, "inbound_nodes": [[["conv_75", 0, 0, {}]]]}, {"name": "leaky_75", "class_name": "LeakyReLU", "config": {"name": "leaky_75", "trainable": true, "dtype": "float32", "alpha": 0.10000000149011612}, "inbound_nodes": [[["bnorm_75", 0, 0, {}]]]}, {"name": "conv_76", "class_name": "Conv2D", "config": {"name": "conv_76", "trainable": true, "dtype": "float32", "filters": 1024, "kernel_size": [3, 3], "strides": [1, 1], "padding": "same", "data_format": "channels_last", "dilation_rate": [1, 1], "activation": "linear", "use_bias": false, "kernel_initializer": {"class_name": "VarianceScaling", "config": {"scale": 1.0, "mode": "fan_avg", "distribution": "uniform", "seed": null}}, "bias_initializer": {"class_name": "Zeros", "config": {}}, "kernel_regularizer": null, "bias_regularizer": null, "activity_regularizer": null, "kernel_constraint": null, "bias_constraint": null}, "inbound_nodes": [[["leaky_75", 0, 0, {}]]]}, {"name": "bnorm_76", "class_name": "BatchNormalization", "config": {"name": "bnorm_76", "trainable": true, "dtype": "float32", "axis": -1, "momentum": 0.99, "epsilon": 0.001, "center": true, "scale": true, "beta_initializer": {"class_name": "Zeros", "config": {}}, "gamma_initializer": {"class_name": "Ones", "config": {}}, "moving_mean_initializer": {"class_name": "Zeros", "config": {}}, "moving_variance_initializer": {"class_name": "Ones", "config": {}}, "beta_regularizer": null, "gamma_regularizer": null, "beta_constraint": null, "gamma_constraint": null}, "inbound_nodes": [[["conv_76", 0, 0, {}]]]}, {"name": "leaky_76", "class_name": "LeakyReLU", "config": {"name": "leaky_76", "trainable": true, "dtype": "float32", "alpha": 0.10000000149011612}, "inbound_nodes": [[["bnorm_76", 0, 0, {}]]]}, {"name": "conv_77", "class_name": "Conv2D", "config": {"name": "conv_77", "trainable": true, "dtype": "float32", "filters": 512, "kernel_size": [1, 1], "strides": [1, 1], "padding": "same", "data_format": "channels_last", "dilation_rate": [1, 1], "activation": "linear", "use_bias": false, "kernel_initializer": {"class_name": "VarianceScaling", "config": {"scale": 1.0, "mode": "fan_avg", "distribution": "uniform", "seed": null}}, "bias_initializer": {"class_name": "Zeros", "config": {}}, "kernel_regularizer": null, "bias_regularizer": null, "activity_regularizer": null, "kernel_constraint": null, "bias_constraint": null}, "inbound_nodes": [[["leaky_76", 0, 0, {}]]]}, {"name": "bnorm_77", "class_name": "BatchNormalization", "config": {"name": "bnorm_77", "trainable": true, "dtype": "float32", "axis": -1, "momentum": 0.99, "epsilon": 0.001, "center": true, "scale": true, "beta_initializer": {"class_name": "Zeros", "config": {}}, "gamma_initializer": {"class_name": "Ones", "config": {}}, "moving_mean_initializer": {"class_name": "Zeros", "config": {}}, "moving_variance_initializer": {"class_name": "Ones", "config": {}}, "beta_regularizer": null, "gamma_regularizer": null, "beta_constraint": null, "gamma_constraint": null}, "inbound_nodes": [[["conv_77", 0, 0, {}]]]}, {"name": "leaky_77", "class_name": "LeakyReLU", "config": {"name": "leaky_77", "trainable": true, "dtype": "float32", "alpha": 0.10000000149011612}, "inbound_nodes": [[["bnorm_77", 0, 0, {}]]]}, {"name": "conv_78", "class_name": "Conv2D", "config": {"name": "conv_78", "trainable": true, "dtype": "float32", "filters": 1024, "kernel_size": [3, 3], "strides": [1, 1], "padding": "same", "data_format": "channels_last", "dilation_rate": [1, 1], "activation": "linear", "use_bias": false, "kernel_initializer": {"class_name": "VarianceScaling", "config": {"scale": 1.0, "mode": "fan_avg", "distribution": "uniform", "seed": null}}, "bias_initializer": {"class_name": "Zeros", "config": {}}, "kernel_regularizer": null, "bias_regularizer": null, "activity_regularizer": null, "kernel_constraint": null, "bias_constraint": null}, "inbound_nodes": [[["leaky_77", 0, 0, {}]]]}, {"name": "bnorm_78", "class_name": "BatchNormalization", "config": {"name": "bnorm_78", "trainable": true, "dtype": "float32", "axis": -1, "momentum": 0.99, "epsilon": 0.001, "center": true, "scale": true, "beta_initializer": {"class_name": "Zeros", "config": {}}, "gamma_initializer": {"class_name": "Ones", "config": {}}, "moving_mean_initializer": {"class_name": "Zeros", "config": {}}, "moving_variance_initializer": {"class_name": "Ones", "config": {}}, "beta_regularizer": null, "gamma_regularizer": null, "beta_constraint": null, "gamma_constraint": null}, "inbound_nodes": [[["conv_78", 0, 0, {}]]]}, {"name": "leaky_78", "class_name": "LeakyReLU", "config": {"name": "leaky_78", "trainable": true, "dtype": "float32", "alpha": 0.10000000149011612}, "inbound_nodes": [[["bnorm_78", 0, 0, {}]]]}, {"name": "conv_79", "class_name": "Conv2D", "config": {"name": "conv_79", "trainable": true, "dtype": "float32", "filters": 512, "kernel_size": [1, 1], "strides": [1, 1], "padding": "same", "data_format": "channels_last", "dilation_rate": [1, 1], "activation": "linear", "use_bias": false, "kernel_initializer": {"class_name": "VarianceScaling", "config": {"scale": 1.0, "mode": "fan_avg", "distribution": "uniform", "seed": null}}, "bias_initializer": {"class_name": "Zeros", "config": {}}, "kernel_regularizer": null, "bias_regularizer": null, "activity_regularizer": null, "kernel_constraint": null, "bias_constraint": null}, "inbound_nodes": [[["leaky_78", 0, 0, {}]]]}, {"name": "bnorm_79", "class_name": "BatchNormalization", "config": {"name": "bnorm_79", "trainable": true, "dtype": "float32", "axis": -1, "momentum": 0.99, "epsilon": 0.001, "center": true, "scale": true, "beta_initializer": {"class_name": "Zeros", "config": {}}, "gamma_initializer": {"class_name": "Ones", "config": {}}, "moving_mean_initializer": {"class_name": "Zeros", "config": {}}, "moving_variance_initializer": {"class_name": "Ones", "config": {}}, "beta_regularizer": null, "gamma_regularizer": null, "beta_constraint": null, "gamma_constraint": null}, "inbound_nodes": [[["conv_79", 0, 0, {}]]]}, {"name": "leaky_79", "class_name": "LeakyReLU", "config": {"name": "leaky_79", "trainable": true, "dtype": "float32", "alpha": 0.10000000149011612}, "inbound_nodes": [[["bnorm_79", 0, 0, {}]]]}, {"name": "conv_84", "class_name": "Conv2D", "config": {"name": "conv_84", "trainable": true, "dtype": "float32", "filters": 256, "kernel_size": [1, 1], "strides": [1, 1], "padding": "same", "data_format": "channels_last", "dilation_rate": [1, 1], "activation": "linear", "use_bias": false, "kernel_initializer": {"class_name": "VarianceScaling", "config": {"scale": 1.0, "mode": "fan_avg", "distribution": "uniform", "seed": null}}, "bias_initializer": {"class_name": "Zeros", "config": {}}, "kernel_regularizer": null, "bias_regularizer": null, "activity_regularizer": null, "kernel_constraint": null, "bias_constraint": null}, "inbound_nodes": [[["leaky_79", 0, 0, {}]]]}, {"name": "bnorm_84", "class_name": "BatchNormalization", "config": {"name": "bnorm_84", "trainable": true, "dtype": "float32", "axis": -1, "momentum": 0.99, "epsilon": 0.001, "center": true, "scale": true, "beta_initializer": {"class_name": "Zeros", "config": {}}, "gamma_initializer": {"class_name": "Ones", "config": {}}, "moving_mean_initializer": {"class_name": "Zeros", "config": {}}, "moving_variance_initializer": {"class_name": "Ones", "config": {}}, "beta_regularizer": null, "gamma_regularizer": null, "beta_constraint": null, "gamma_constraint": null}, "inbound_nodes": [[["conv_84", 0, 0, {}]]]}, {"name": "leaky_84", "class_name": "LeakyReLU", "config": {"name": "leaky_84", "trainable": true, "dtype": "float32", "alpha": 0.10000000149011612}, "inbound_nodes": [[["bnorm_84", 0, 0, {}]]]}, {"name": "up_sampling2d_1", "class_name": "UpSampling2D", "config": {"name": "up_sampling2d_1", "trainable": true, "dtype": "float32", "size": [2, 2], "data_format": "channels_last", "interpolation": "nearest"}, "inbound_nodes": [[["leaky_84", 0, 0, {}]]]}, {"name": "concatenate_1", "class_name": "Concatenate", "config": {"name": "concatenate_1", "trainable": true, "dtype": "float32", "axis": -1}, "inbound_nodes": [[["up_sampling2d_1", 0, 0, {}], ["add_19", 0, 0, {}]]]}, {"name": "conv_87", "class_name": "Conv2D", "config": {"name": "conv_87", "trainable": true, "dtype": "float32", "filters": 256, "kernel_size": [1, 1], "strides": [1, 1], "padding": "same", "data_format": "channels_last", "dilation_rate": [1, 1], "activation": "linear", "use_bias": false, "kernel_initializer": {"class_name": "VarianceScaling", "config": {"scale": 1.0, "mode": "fan_avg", "distribution": "uniform", "seed": null}}, "bias_initializer": {"class_name": "Zeros", "config": {}}, "kernel_regularizer": null, "bias_regularizer": null, "activity_regularizer": null, "kernel_constraint": null, "bias_constraint": null}, "inbound_nodes": [[["concatenate_1", 0, 0, {}]]]}, {"name": "bnorm_87", "class_name": "BatchNormalization", "config": {"name": "bnorm_87", "trainable": true, "dtype": "float32", "axis": -1, "momentum": 0.99, "epsilon": 0.001, "center": true, "scale": true, "beta_initializer": {"class_name": "Zeros", "config": {}}, "gamma_initializer": {"class_name": "Ones", "config": {}}, "moving_mean_initializer": {"class_name": "Zeros", "config": {}}, "moving_variance_initializer": {"class_name": "Ones", "config": {}}, "beta_regularizer": null, "gamma_regularizer": null, "beta_constraint": null, "gamma_constraint": null}, "inbound_nodes": [[["conv_87", 0, 0, {}]]]}, {"name": "leaky_87", "class_name": "LeakyReLU", "config": {"name": "leaky_87", "trainable": true, "dtype": "float32", "alpha": 0.10000000149011612}, "inbound_nodes": [[["bnorm_87", 0, 0, {}]]]}, {"name": "conv_88", "class_name": "Conv2D", "config": {"name": "conv_88", "trainable": true, "dtype": "float32", "filters": 512, "kernel_size": [3, 3], "strides": [1, 1], "padding": "same", "data_format": "channels_last", "dilation_rate": [1, 1], "activation": "linear", "use_bias": false, "kernel_initializer": {"class_name": "VarianceScaling", "config": {"scale": 1.0, "mode": "fan_avg", "distribution": "uniform", "seed": null}}, "bias_initializer": {"class_name": "Zeros", "config": {}}, "kernel_regularizer": null, "bias_regularizer": null, "activity_regularizer": null, "kernel_constraint": null, "bias_constraint": null}, "inbound_nodes": [[["leaky_87", 0, 0, {}]]]}, {"name": "bnorm_88", "class_name": "BatchNormalization", "config": {"name": "bnorm_88", "trainable": true, "dtype": "float32", "axis": -1, "momentum": 0.99, "epsilon": 0.001, "center": true, "scale": true, "beta_initializer": {"class_name": "Zeros", "config": {}}, "gamma_initializer": {"class_name": "Ones", "config": {}}, "moving_mean_initializer": {"class_name": "Zeros", "config": {}}, "moving_variance_initializer": {"class_name": "Ones", "config": {}}, "beta_regularizer": null, "gamma_regularizer": null, "beta_constraint": null, "gamma_constraint": null}, "inbound_nodes": [[["conv_88", 0, 0, {}]]]}, {"name": "leaky_88", "class_name": "LeakyReLU", "config": {"name": "leaky_88", "trainable": true, "dtype": "float32", "alpha": 0.10000000149011612}, "inbound_nodes": [[["bnorm_88", 0, 0, {}]]]}, {"name": "conv_89", "class_name": "Conv2D", "config": {"name": "conv_89", "trainable": true, "dtype": "float32", "filters": 256, "kernel_size": [1, 1], "strides": [1, 1], "padding": "same", "data_format": "channels_last", "dilation_rate": [1, 1], "activation": "linear", "use_bias": false, "kernel_initializer": {"class_name": "VarianceScaling", "config": {"scale": 1.0, "mode": "fan_avg", "distribution": "uniform", "seed": null}}, "bias_initializer": {"class_name": "Zeros", "config": {}}, "kernel_regularizer": null, "bias_regularizer": null, "activity_regularizer": null, "kernel_constraint": null, "bias_constraint": null}, "inbound_nodes": [[["leaky_88", 0, 0, {}]]]}, {"name": "bnorm_89", "class_name": "BatchNormalization", "config": {"name": "bnorm_89", "trainable": true, "dtype": "float32", "axis": -1, "momentum": 0.99, "epsilon": 0.001, "center": true, "scale": true, "beta_initializer": {"class_name": "Zeros", "config": {}}, "gamma_initializer": {"class_name": "Ones", "config": {}}, "moving_mean_initializer": {"class_name": "Zeros", "config": {}}, "moving_variance_initializer": {"class_name": "Ones", "config": {}}, "beta_regularizer": null, "gamma_regularizer": null, "beta_constraint": null, "gamma_constraint": null}, "inbound_nodes": [[["conv_89", 0, 0, {}]]]}, {"name": "leaky_89", "class_name": "LeakyReLU", "config": {"name": "leaky_89", "trainable": true, "dtype": "float32", "alpha": 0.10000000149011612}, "inbound_nodes": [[["bnorm_89", 0, 0, {}]]]}, {"name": "conv_90", "class_name": "Conv2D", "config": {"name": "conv_90", "trainable": true, "dtype": "float32", "filters": 512, "kernel_size": [3, 3], "strides": [1, 1], "padding": "same", "data_format": "channels_last", "dilation_rate": [1, 1], "activation": "linear", "use_bias": false, "kernel_initializer": {"class_name": "VarianceScaling", "config": {"scale": 1.0, "mode": "fan_avg", "distribution": "uniform", "seed": null}}, "bias_initializer": {"class_name": "Zeros", "config": {}}, "kernel_regularizer": null, "bias_regularizer": null, "activity_regularizer": null, "kernel_constraint": null, "bias_constraint": null}, "inbound_nodes": [[["leaky_89", 0, 0, {}]]]}, {"name": "bnorm_90", "class_name": "BatchNormalization", "config": {"name": "bnorm_90", "trainable": true, "dtype": "float32", "axis": -1, "momentum": 0.99, "epsilon": 0.001, "center": true, "scale": true, "beta_initializer": {"class_name": "Zeros", "config": {}}, "gamma_initializer": {"class_name": "Ones", "config": {}}, "moving_mean_initializer": {"class_name": "Zeros", "config": {}}, "moving_variance_initializer": {"class_name": "Ones", "config": {}}, "beta_regularizer": null, "gamma_regularizer": null, "beta_constraint": null, "gamma_constraint": null}, "inbound_nodes": [[["conv_90", 0, 0, {}]]]}, {"name": "leaky_90", "class_name": "LeakyReLU", "config": {"name": "leaky_90", "trainable": true, "dtype": "float32", "alpha": 0.10000000149011612}, "inbound_nodes": [[["bnorm_90", 0, 0, {}]]]}, {"name": "conv_91", "class_name": "Conv2D", "config": {"name": "conv_91", "trainable": true, "dtype": "float32", "filters": 256, "kernel_size": [1, 1], "strides": [1, 1], "padding": "same", "data_format": "channels_last", "dilation_rate": [1, 1], "activation": "linear", "use_bias": false, "kernel_initializer": {"class_name": "VarianceScaling", "config": {"scale": 1.0, "mode": "fan_avg", "distribution": "uniform", "seed": null}}, "bias_initializer": {"class_name": "Zeros", "config": {}}, "kernel_regularizer": null, "bias_regularizer": null, "activity_regularizer": null, "kernel_constraint": null, "bias_constraint": null}, "inbound_nodes": [[["leaky_90", 0, 0, {}]]]}, {"name": "bnorm_91", "class_name": "BatchNormalization", "config": {"name": "bnorm_91", "trainable": true, "dtype": "float32", "axis": -1, "momentum": 0.99, "epsilon": 0.001, "center": true, "scale": true, "beta_initializer": {"class_name": "Zeros", "config": {}}, "gamma_initializer": {"class_name": "Ones", "config": {}}, "moving_mean_initializer": {"class_name": "Zeros", "config": {}}, "moving_variance_initializer": {"class_name": "Ones", "config": {}}, "beta_regularizer": null, "gamma_regularizer": null, "beta_constraint": null, "gamma_constraint": null}, "inbound_nodes": [[["conv_91", 0, 0, {}]]]}, {"name": "leaky_91", "class_name": "LeakyReLU", "config": {"name": "leaky_91", "trainable": true, "dtype": "float32", "alpha": 0.10000000149011612}, "inbound_nodes": [[["bnorm_91", 0, 0, {}]]]}, {"name": "conv_96", "class_name": "Conv2D", "config": {"name": "conv_96", "trainable": true, "dtype": "float32", "filters": 128, "kernel_size": [1, 1], "strides": [1, 1], "padding": "same", "data_format": "channels_last", "dilation_rate": [1, 1], "activation": "linear", "use_bias": false, "kernel_initializer": {"class_name": "VarianceScaling", "config": {"scale": 1.0, "mode": "fan_avg", "distribution": "uniform", "seed": null}}, "bias_initializer": {"class_name": "Zeros", "config": {}}, "kernel_regularizer": null, "bias_regularizer": null, "activity_regularizer": null, "kernel_constraint": null, "bias_constraint": null}, "inbound_nodes": [[["leaky_91", 0, 0, {}]]]}, {"name": "bnorm_96", "class_name": "BatchNormalization", "config": {"name": "bnorm_96", "trainable": true, "dtype": "float32", "axis": -1, "momentum": 0.99, "epsilon": 0.001, "center": true, "scale": true, "beta_initializer": {"class_name": "Zeros", "config": {}}, "gamma_initializer": {"class_name": "Ones", "config": {}}, "moving_mean_initializer": {"class_name": "Zeros", "config": {}}, "moving_variance_initializer": {"class_name": "Ones", "config": {}}, "beta_regularizer": null, "gamma_regularizer": null, "beta_constraint": null, "gamma_constraint": null}, "inbound_nodes": [[["conv_96", 0, 0, {}]]]}, {"name": "leaky_96", "class_name": "LeakyReLU", "config": {"name": "leaky_96", "trainable": true, "dtype": "float32", "alpha": 0.10000000149011612}, "inbound_nodes": [[["bnorm_96", 0, 0, {}]]]}, {"name": "up_sampling2d_2", "class_name": "UpSampling2D", "config": {"name": "up_sampling2d_2", "trainable": true, "dtype": "float32", "size": [2, 2], "data_format": "channels_last", "interpolation": "nearest"}, "inbound_nodes": [[["leaky_96", 0, 0, {}]]]}, {"name": "concatenate_2", "class_name": "Concatenate", "config": {"name": "concatenate_2", "trainable": true, "dtype": "float32", "axis": -1}, "inbound_nodes": [[["up_sampling2d_2", 0, 0, {}], ["add_11", 0, 0, {}]]]}, {"name": "conv_99", "class_name": "Conv2D", "config": {"name": "conv_99", "trainable": true, "dtype": "float32", "filters": 128, "kernel_size": [1, 1], "strides": [1, 1], "padding": "same", "data_format": "channels_last", "dilation_rate": [1, 1], "activation": "linear", "use_bias": false, "kernel_initializer": {"class_name": "VarianceScaling", "config": {"scale": 1.0, "mode": "fan_avg", "distribution": "uniform", "seed": null}}, "bias_initializer": {"class_name": "Zeros", "config": {}}, "kernel_regularizer": null, "bias_regularizer": null, "activity_regularizer": null, "kernel_constraint": null, "bias_constraint": null}, "inbound_nodes": [[["concatenate_2", 0, 0, {}]]]}, {"name": "bnorm_99", "class_name": "BatchNormalization", "config": {"name": "bnorm_99", "trainable": true, "dtype": "float32", "axis": -1, "momentum": 0.99, "epsilon": 0.001, "center": true, "scale": true, "beta_initializer": {"class_name": "Zeros", "config": {}}, "gamma_initializer": {"class_name": "Ones", "config": {}}, "moving_mean_initializer": {"class_name": "Zeros", "config": {}}, "moving_variance_initializer": {"class_name": "Ones", "config": {}}, "beta_regularizer": null, "gamma_regularizer": null, "beta_constraint": null, "gamma_constraint": null}, "inbound_nodes": [[["conv_99", 0, 0, {}]]]}, {"name": "leaky_99", "class_name": "LeakyReLU", "config": {"name": "leaky_99", "trainable": true, "dtype": "float32", "alpha": 0.10000000149011612}, "inbound_nodes": [[["bnorm_99", 0, 0, {}]]]}, {"name": "conv_100", "class_name": "Conv2D", "config": {"name": "conv_100", "trainable": true, "dtype": "float32", "filters": 256, "kernel_size": [3, 3], "strides": [1, 1], "padding": "same", "data_format": "channels_last", "dilation_rate": [1, 1], "activation": "linear", "use_bias": false, "kernel_initializer": {"class_name": "VarianceScaling", "config": {"scale": 1.0, "mode": "fan_avg", "distribution": "uniform", "seed": null}}, "bias_initializer": {"class_name": "Zeros", "config": {}}, "kernel_regularizer": null, "bias_regularizer": null, "activity_regularizer": null, "kernel_constraint": null, "bias_constraint": null}, "inbound_nodes": [[["leaky_99", 0, 0, {}]]]}, {"name": "bnorm_100", "class_name": "BatchNormalization", "config": {"name": "bnorm_100", "trainable": true, "dtype": "float32", "axis": -1, "momentum": 0.99, "epsilon": 0.001, "center": true, "scale": true, "beta_initializer": {"class_name": "Zeros", "config": {}}, "gamma_initializer": {"class_name": "Ones", "config": {}}, "moving_mean_initializer": {"class_name": "Zeros", "config": {}}, "moving_variance_initializer": {"class_name": "Ones", "config": {}}, "beta_regularizer": null, "gamma_regularizer": null, "beta_constraint": null, "gamma_constraint": null}, "inbound_nodes": [[["conv_100", 0, 0, {}]]]}, {"name": "leaky_100", "class_name": "LeakyReLU", "config": {"name": "leaky_100", "trainable": true, "dtype": "float32", "alpha": 0.10000000149011612}, "inbound_nodes": [[["bnorm_100", 0, 0, {}]]]}, {"name": "conv_101", "class_name": "Conv2D", "config": {"name": "conv_101", "trainable": true, "dtype": "float32", "filters": 128, "kernel_size": [1, 1], "strides": [1, 1], "padding": "same", "data_format": "channels_last", "dilation_rate": [1, 1], "activation": "linear", "use_bias": false, "kernel_initializer": {"class_name": "VarianceScaling", "config": {"scale": 1.0, "mode": "fan_avg", "distribution": "uniform", "seed": null}}, "bias_initializer": {"class_name": "Zeros", "config": {}}, "kernel_regularizer": null, "bias_regularizer": null, "activity_regularizer": null, "kernel_constraint": null, "bias_constraint": null}, "inbound_nodes": [[["leaky_100", 0, 0, {}]]]}, {"name": "bnorm_101", "class_name": "BatchNormalization", "config": {"name": "bnorm_101", "trainable": true, "dtype": "float32", "axis": -1, "momentum": 0.99, "epsilon": 0.001, "center": true, "scale": true, "beta_initializer": {"class_name": "Zeros", "config": {}}, "gamma_initializer": {"class_name": "Ones", "config": {}}, "moving_mean_initializer": {"class_name": "Zeros", "config": {}}, "moving_variance_initializer": {"class_name": "Ones", "config": {}}, "beta_regularizer": null, "gamma_regularizer": null, "beta_constraint": null, "gamma_constraint": null}, "inbound_nodes": [[["conv_101", 0, 0, {}]]]}, {"name": "leaky_101", "class_name": "LeakyReLU", "config": {"name": "leaky_101", "trainable": true, "dtype": "float32", "alpha": 0.10000000149011612}, "inbound_nodes": [[["bnorm_101", 0, 0, {}]]]}, {"name": "conv_102", "class_name": "Conv2D", "config": {"name": "conv_102", "trainable": true, "dtype": "float32", "filters": 256, "kernel_size": [3, 3], "strides": [1, 1], "padding": "same", "data_format": "channels_last", "dilation_rate": [1, 1], "activation": "linear", "use_bias": false, "kernel_initializer": {"class_name": "VarianceScaling", "config": {"scale": 1.0, "mode": "fan_avg", "distribution": "uniform", "seed": null}}, "bias_initializer": {"class_name": "Zeros", "config": {}}, "kernel_regularizer": null, "bias_regularizer": null, "activity_regularizer": null, "kernel_constraint": null, "bias_constraint": null}, "inbound_nodes": [[["leaky_101", 0, 0, {}]]]}, {"name": "bnorm_102", "class_name": "BatchNormalization", "config": {"name": "bnorm_102", "trainable": true, "dtype": "float32", "axis": -1, "momentum": 0.99, "epsilon": 0.001, "center": true, "scale": true, "beta_initializer": {"class_name": "Zeros", "config": {}}, "gamma_initializer": {"class_name": "Ones", "config": {}}, "moving_mean_initializer": {"class_name": "Zeros", "config": {}}, "moving_variance_initializer": {"class_name": "Ones", "config": {}}, "beta_regularizer": null, "gamma_regularizer": null, "beta_constraint": null, "gamma_constraint": null}, "inbound_nodes": [[["conv_102", 0, 0, {}]]]}, {"name": "leaky_102", "class_name": "LeakyReLU", "config": {"name": "leaky_102", "trainable": true, "dtype": "float32", "alpha": 0.10000000149011612}, "inbound_nodes": [[["bnorm_102", 0, 0, {}]]]}, {"name": "conv_103", "class_name": "Conv2D", "config": {"name": "conv_103", "trainable": true, "dtype": "float32", "filters": 128, "kernel_size": [1, 1], "strides": [1, 1], "padding": "same", "data_format": "channels_last", "dilation_rate": [1, 1], "activation": "linear", "use_bias": false, "kernel_initializer": {"class_name": "VarianceScaling", "config": {"scale": 1.0, "mode": "fan_avg", "distribution": "uniform", "seed": null}}, "bias_initializer": {"class_name": "Zeros", "config": {}}, "kernel_regularizer": null, "bias_regularizer": null, "activity_regularizer": null, "kernel_constraint": null, "bias_constraint": null}, "inbound_nodes": [[["leaky_102", 0, 0, {}]]]}, {"name": "bnorm_103", "class_name": "BatchNormalization", "config": {"name": "bnorm_103", "trainable": true, "dtype": "float32", "axis": -1, "momentum": 0.99, "epsilon": 0.001, "center": true, "scale": true, "beta_initializer": {"class_name": "Zeros", "config": {}}, "gamma_initializer": {"class_name": "Ones", "config": {}}, "moving_mean_initializer": {"class_name": "Zeros", "config": {}}, "moving_variance_initializer": {"class_name": "Ones", "config": {}}, "beta_regularizer": null, "gamma_regularizer": null, "beta_constraint": null, "gamma_constraint": null}, "inbound_nodes": [[["conv_103", 0, 0, {}]]]}, {"name": "leaky_103", "class_name": "LeakyReLU", "config": {"name": "leaky_103", "trainable": true, "dtype": "float32", "alpha": 0.10000000149011612}, "inbound_nodes": [[["bnorm_103", 0, 0, {}]]]}, {"name": "conv_80", "class_name": "Conv2D", "config": {"name": "conv_80", "trainable": true, "dtype": "float32", "filters": 1024, "kernel_size": [3, 3], "strides": [1, 1], "padding": "same", "data_format": "channels_last", "dilation_rate": [1, 1], "activation": "linear", "use_bias": false, "kernel_initializer": {"class_name": "VarianceScaling", "config": {"scale": 1.0, "mode": "fan_avg", "distribution": "uniform", "seed": null}}, "bias_initializer": {"class_name": "Zeros", "config": {}}, "kernel_regularizer": null, "bias_regularizer": null, "activity_regularizer": null, "kernel_constraint": null, "bias_constraint": null}, "inbound_nodes": [[["leaky_79", 0, 0, {}]]]}, {"name": "conv_92", "class_name": "Conv2D", "config": {"name": "conv_92", "trainable": true, "dtype": "float32", "filters": 512, "kernel_size": [3, 3], "strides": [1, 1], "padding": "same", "data_format": "channels_last", "dilation_rate": [1, 1], "activation": "linear", "use_bias": false, "kernel_initializer": {"class_name": "VarianceScaling", "config": {"scale": 1.0, "mode": "fan_avg", "distribution": "uniform", "seed": null}}, "bias_initializer": {"class_name": "Zeros", "config": {}}, "kernel_regularizer": null, "bias_regularizer": null, "activity_regularizer": null, "kernel_constraint": null, "bias_constraint": null}, "inbound_nodes": [[["leaky_91", 0, 0, {}]]]}, {"name": "conv_104", "class_name": "Conv2D", "config": {"name": "conv_104", "trainable": true, "dtype": "float32", "filters": 256, "kernel_size": [3, 3], "strides": [1, 1], "padding": "same", "data_format": "channels_last", "dilation_rate": [1, 1], "activation": "linear", "use_bias": false, "kernel_initializer": {"class_name": "VarianceScaling", "config": {"scale": 1.0, "mode": "fan_avg", "distribution": "uniform", "seed": null}}, "bias_initializer": {"class_name": "Zeros", "config": {}}, "kernel_regularizer": null, "bias_regularizer": null, "activity_regularizer": null, "kernel_constraint": null, "bias_constraint": null}, "inbound_nodes": [[["leaky_103", 0, 0, {}]]]}, {"name": "bnorm_80", "class_name": "BatchNormalization", "config": {"name": "bnorm_80", "trainable": true, "dtype": "float32", "axis": -1, "momentum": 0.99, "epsilon": 0.001, "center": true, "scale": true, "beta_initializer": {"class_name": "Zeros", "config": {}}, "gamma_initializer": {"class_name": "Ones", "config": {}}, "moving_mean_initializer": {"class_name": "Zeros", "config": {}}, "moving_variance_initializer": {"class_name": "Ones", "config": {}}, "beta_regularizer": null, "gamma_regularizer": null, "beta_constraint": null, "gamma_constraint": null}, "inbound_nodes": [[["conv_80", 0, 0, {}]]]}, {"name": "bnorm_92", "class_name": "BatchNormalization", "config": {"name": "bnorm_92", "trainable": true, "dtype": "float32", "axis": -1, "momentum": 0.99, "epsilon": 0.001, "center": true, "scale": true, "beta_initializer": {"class_name": "Zeros", "config": {}}, "gamma_initializer": {"class_name": "Ones", "config": {}}, "moving_mean_initializer": {"class_name": "Zeros", "config": {}}, "moving_variance_initializer": {"class_name": "Ones", "config": {}}, "beta_regularizer": null, "gamma_regularizer": null, "beta_constraint": null, "gamma_constraint": null}, "inbound_nodes": [[["conv_92", 0, 0, {}]]]}, {"name": "bnorm_104", "class_name": "BatchNormalization", "config": {"name": "bnorm_104", "trainable": true, "dtype": "float32", "axis": -1, "momentum": 0.99, "epsilon": 0.001, "center": true, "scale": true, "beta_initializer": {"class_name": "Zeros", "config": {}}, "gamma_initializer": {"class_name": "Ones", "config": {}}, "moving_mean_initializer": {"class_name": "Zeros", "config": {}}, "moving_variance_initializer": {"class_name": "Ones", "config": {}}, "beta_regularizer": null, "gamma_regularizer": null, "beta_constraint": null, "gamma_constraint": null}, "inbound_nodes": [[["conv_104", 0, 0, {}]]]}, {"name": "leaky_80", "class_name": "LeakyReLU", "config": {"name": "leaky_80", "trainable": true, "dtype": "float32", "alpha": 0.10000000149011612}, "inbound_nodes": [[["bnorm_80", 0, 0, {}]]]}, {"name": "leaky_92", "class_name": "LeakyReLU", "config": {"name": "leaky_92", "trainable": true, "dtype": "float32", "alpha": 0.10000000149011612}, "inbound_nodes": [[["bnorm_92", 0, 0, {}]]]}, {"name": "leaky_104", "class_name": "LeakyReLU", "config": {"name": "leaky_104", "trainable": true, "dtype": "float32", "alpha": 0.10000000149011612}, "inbound_nodes": [[["bnorm_104", 0, 0, {}]]]}, {"name": "conv_81", "class_name": "Conv2D", "config": {"name": "conv_81", "trainable": true, "dtype": "float32", "filters": 30, "kernel_size": [1, 1], "strides": [1, 1], "padding": "same", "data_format": "channels_last", "dilation_rate": [1, 1], "activation": "linear", "use_bias": true, "kernel_initializer": {"class_name": "VarianceScaling", "config": {"scale": 1.0, "mode": "fan_avg", "distribution": "uniform", "seed": null}}, "bias_initializer": {"class_name": "Zeros", "config": {}}, "kernel_regularizer": null, "bias_regularizer": null, "activity_regularizer": null, "kernel_constraint": null, "bias_constraint": null}, "inbound_nodes": [[["leaky_80", 0, 0, {}]]]}, {"name": "conv_93", "class_name": "Conv2D", "config": {"name": "conv_93", "trainable": true, "dtype": "float32", "filters": 30, "kernel_size": [1, 1], "strides": [1, 1], "padding": "same", "data_format": "channels_last", "dilation_rate": [1, 1], "activation": "linear", "use_bias": true, "kernel_initializer": {"class_name": "VarianceScaling", "config": {"scale": 1.0, "mode": "fan_avg", "distribution": "uniform", "seed": null}}, "bias_initializer": {"class_name": "Zeros", "config": {}}, "kernel_regularizer": null, "bias_regularizer": null, "activity_regularizer": null, "kernel_constraint": null, "bias_constraint": null}, "inbound_nodes": [[["leaky_92", 0, 0, {}]]]}, {"name": "conv_105", "class_name": "Conv2D", "config": {"name": "conv_105", "trainable": true, "dtype": "float32", "filters": 30, "kernel_size": [1, 1], "strides": [1, 1], "padding": "same", "data_format": "channels_last", "dilation_rate": [1, 1], "activation": "linear", "use_bias": true, "kernel_initializer": {"class_name": "VarianceScaling", "config": {"scale": 1.0, "mode": "fan_avg", "distribution": "uniform", "seed": null}}, "bias_initializer": {"class_name": "Zeros", "config": {}}, "kernel_regularizer": null, "bias_regularizer": null, "activity_regularizer": null, "kernel_constraint": null, "bias_constraint": null}, "inbound_nodes": [[["leaky_104", 0, 0, {}]]]}], "input_layers": [["input_1", 0, 0]], "output_layers": [["conv_81", 0, 0], ["conv_93", 0, 0], ["conv_105", 0, 0]]}}}, "weightsManifest": [{"paths": ["group1-shard1of59.bin", "group1-shard2of59.bin", "group1-shard3of59.bin", "group1-shard4of59.bin", "group1-shard5of59.bin", "group1-shard6of59.bin", "group1-shard7of59.bin", "group1-shard8of59.bin", "group1-shard9of59.bin", "group1-shard10of59.bin", "group1-shard11of59.bin", "group1-shard12of59.bin", "group1-shard13of59.bin", "group1-shard14of59.bin", "group1-shard15of59.bin", "group1-shard16of59.bin", "group1-shard17of59.bin", "group1-shard18of59.bin", "group1-shard19of59.bin", "group1-shard20of59.bin", "group1-shard21of59.bin", "group1-shard22of59.bin", "group1-shard23of59.bin", "group1-shard24of59.bin", "group1-shard25of59.bin", "group1-shard26of59.bin", "group1-shard27of59.bin", "group1-shard28of59.bin", "group1-shard29of59.bin", "group1-shard30of59.bin", "group1-shard31of59.bin", "group1-shard32of59.bin", "group1-shard33of59.bin", "group1-shard34of59.bin", "group1-shard35of59.bin", "group1-shard36of59.bin", "group1-shard37of59.bin", "group1-shard38of59.bin", "group1-shard39of59.bin", "group1-shard40of59.bin", "group1-shard41of59.bin", "group1-shard42of59.bin", "group1-shard43of59.bin", "group1-shard44of59.bin", "group1-shard45of59.bin", "group1-shard46of59.bin", "group1-shard47of59.bin", "group1-shard48of59.bin", "group1-shard49of59.bin", "group1-shard50of59.bin", "group1-shard51of59.bin", "group1-shard52of59.bin", "group1-shard53of59.bin", "group1-shard54of59.bin", "group1-shard55of59.bin", "group1-shard56of59.bin", "group1-shard57of59.bin", "group1-shard58of59.bin", "group1-shard59of59.bin"], "weights": [{"name": "bnorm_0/gamma", "shape": [32], "dtype": "float32"}, {"name": "bnorm_0/beta", "shape": [32], "dtype": "float32"}, {"name": "bnorm_0/moving_mean", "shape": [32], "dtype": "float32"}, {"name": "bnorm_0/moving_variance", "shape": [32], "dtype": "float32"}, {"name": "bnorm_1/gamma", "shape": [64], "dtype": "float32"}, {"name": "bnorm_1/beta", "shape": [64], "dtype": "float32"}, {"name": "bnorm_1/moving_mean", "shape": [64], "dtype": "float32"}, {"name": "bnorm_1/moving_variance", "shape": [64], "dtype": "float32"}, {"name": "bnorm_10/gamma", "shape": [128], "dtype": "float32"}, {"name": "bnorm_10/beta", "shape": [128], "dtype": "float32"}, {"name": "bnorm_10/moving_mean", "shape": [128], "dtype": "float32"}, {"name": "bnorm_10/moving_variance", "shape": [128], "dtype": "float32"}, {"name": "bnorm_100/gamma", "shape": [256], "dtype": "float32"}, {"name": "bnorm_100/beta", "shape": [256], "dtype": "float32"}, {"name": "bnorm_100/moving_mean", "shape": [256], "dtype": "float32"}, {"name": "bnorm_100/moving_variance", "shape": [256], "dtype": "float32"}, {"name": "bnorm_101/gamma", "shape": [128], "dtype": "float32"}, {"name": "bnorm_101/beta", "shape": [128], "dtype": "float32"}, {"name": "bnorm_101/moving_mean", "shape": [128], "dtype": "float32"}, {"name": "bnorm_101/moving_variance", "shape": [128], "dtype": "float32"}, {"name": "bnorm_102/gamma", "shape": [256], "dtype": "float32"}, {"name": "bnorm_102/beta", "shape": [256], "dtype": "float32"}, {"name": "bnorm_102/moving_mean", "shape": [256], "dtype": "float32"}, {"name": "bnorm_102/moving_variance", "shape": [256], "dtype": "float32"}, {"name": "bnorm_103/gamma", "shape": [128], "dtype": "float32"}, {"name": "bnorm_103/beta", "shape": [128], "dtype": "float32"}, {"name": "bnorm_103/moving_mean", "shape": [128], "dtype": "float32"}, {"name": "bnorm_103/moving_variance", "shape": [128], "dtype": "float32"}, {"name": "bnorm_104/gamma", "shape": [256], "dtype": "float32"}, {"name": "bnorm_104/beta", "shape": [256], "dtype": "float32"}, {"name": "bnorm_104/moving_mean", "shape": [256], "dtype": "float32"}, {"name": "bnorm_104/moving_variance", "shape": [256], "dtype": "float32"}, {"name": "bnorm_12/gamma", "shape": [256], "dtype": "float32"}, {"name": "bnorm_12/beta", "shape": [256], "dtype": "float32"}, {"name": "bnorm_12/moving_mean", "shape": [256], "dtype": "float32"}, {"name": "bnorm_12/moving_variance", "shape": [256], "dtype": "float32"}, {"name": "bnorm_13/gamma", "shape": [128], "dtype": "float32"}, {"name": "bnorm_13/beta", "shape": [128], "dtype": "float32"}, {"name": "bnorm_13/moving_mean", "shape": [128], "dtype": "float32"}, {"name": "bnorm_13/moving_variance", "shape": [128], "dtype": "float32"}, {"name": "bnorm_14/gamma", "shape": [256], "dtype": "float32"}, {"name": "bnorm_14/beta", "shape": [256], "dtype": "float32"}, {"name": "bnorm_14/moving_mean", "shape": [256], "dtype": "float32"}, {"name": "bnorm_14/moving_variance", "shape": [256], "dtype": "float32"}, {"name": "bnorm_16/gamma", "shape": [128], "dtype": "float32"}, {"name": "bnorm_16/beta", "shape": [128], "dtype": "float32"}, {"name": "bnorm_16/moving_mean", "shape": [128], "dtype": "float32"}, {"name": "bnorm_16/moving_variance", "shape": [128], "dtype": "float32"}, {"name": "bnorm_17/gamma", "shape": [256], "dtype": "float32"}, {"name": "bnorm_17/beta", "shape": [256], "dtype": "float32"}, {"name": "bnorm_17/moving_mean", "shape": [256], "dtype": "float32"}, {"name": "bnorm_17/moving_variance", "shape": [256], "dtype": "float32"}, {"name": "bnorm_19/gamma", "shape": [128], "dtype": "float32"}, {"name": "bnorm_19/beta", "shape": [128], "dtype": "float32"}, {"name": "bnorm_19/moving_mean", "shape": [128], "dtype": "float32"}, {"name": "bnorm_19/moving_variance", "shape": [128], "dtype": "float32"}, {"name": "bnorm_2/gamma", "shape": [32], "dtype": "float32"}, {"name": "bnorm_2/beta", "shape": [32], "dtype": "float32"}, {"name": "bnorm_2/moving_mean", "shape": [32], "dtype": "float32"}, {"name": "bnorm_2/moving_variance", "shape": [32], "dtype": "float32"}, {"name": "bnorm_20/gamma", "shape": [256], "dtype": "float32"}, {"name": "bnorm_20/beta", "shape": [256], "dtype": "float32"}, {"name": "bnorm_20/moving_mean", "shape": [256], "dtype": "float32"}, {"name": "bnorm_20/moving_variance", "shape": [256], "dtype": "float32"}, {"name": "bnorm_22/gamma", "shape": [128], "dtype": "float32"}, {"name": "bnorm_22/beta", "shape": [128], "dtype": "float32"}, {"name": "bnorm_22/moving_mean", "shape": [128], "dtype": "float32"}, {"name": "bnorm_22/moving_variance", "shape": [128], "dtype": "float32"}, {"name": "bnorm_23/gamma", "shape": [256], "dtype": "float32"}, {"name": "bnorm_23/beta", "shape": [256], "dtype": "float32"}, {"name": "bnorm_23/moving_mean", "shape": [256], "dtype": "float32"}, {"name": "bnorm_23/moving_variance", "shape": [256], "dtype": "float32"}, {"name": "bnorm_25/gamma", "shape": [128], "dtype": "float32"}, {"name": "bnorm_25/beta", "shape": [128], "dtype": "float32"}, {"name": "bnorm_25/moving_mean", "shape": [128], "dtype": "float32"}, {"name": "bnorm_25/moving_variance", "shape": [128], "dtype": "float32"}, {"name": "bnorm_26/gamma", "shape": [256], "dtype": "float32"}, {"name": "bnorm_26/beta", "shape": [256], "dtype": "float32"}, {"name": "bnorm_26/moving_mean", "shape": [256], "dtype": "float32"}, {"name": "bnorm_26/moving_variance", "shape": [256], "dtype": "float32"}, {"name": "bnorm_28/gamma", "shape": [128], "dtype": "float32"}, {"name": "bnorm_28/beta", "shape": [128], "dtype": "float32"}, {"name": "bnorm_28/moving_mean", "shape": [128], "dtype": "float32"}, {"name": "bnorm_28/moving_variance", "shape": [128], "dtype": "float32"}, {"name": "bnorm_29/gamma", "shape": [256], "dtype": "float32"}, {"name": "bnorm_29/beta", "shape": [256], "dtype": "float32"}, {"name": "bnorm_29/moving_mean", "shape": [256], "dtype": "float32"}, {"name": "bnorm_29/moving_variance", "shape": [256], "dtype": "float32"}, {"name": "bnorm_3/gamma", "shape": [64], "dtype": "float32"}, {"name": "bnorm_3/beta", "shape": [64], "dtype": "float32"}, {"name": "bnorm_3/moving_mean", "shape": [64], "dtype": "float32"}, {"name": "bnorm_3/moving_variance", "shape": [64], "dtype": "float32"}, {"name": "bnorm_31/gamma", "shape": [128], "dtype": "float32"}, {"name": "bnorm_31/beta", "shape": [128], "dtype": "float32"}, {"name": "bnorm_31/moving_mean", "shape": [128], "dtype": "float32"}, {"name": "bnorm_31/moving_variance", "shape": [128], "dtype": "float32"}, {"name": "bnorm_32/gamma", "shape": [256], "dtype": "float32"}, {"name": "bnorm_32/beta", "shape": [256], "dtype": "float32"}, {"name": "bnorm_32/moving_mean", "shape": [256], "dtype": "float32"}, {"name": "bnorm_32/moving_variance", "shape": [256], "dtype": "float32"}, {"name": "bnorm_34/gamma", "shape": [128], "dtype": "float32"}, {"name": "bnorm_34/beta", "shape": [128], "dtype": "float32"}, {"name": "bnorm_34/moving_mean", "shape": [128], "dtype": "float32"}, {"name": "bnorm_34/moving_variance", "shape": [128], "dtype": "float32"}, {"name": "bnorm_35/gamma", "shape": [256], "dtype": "float32"}, {"name": "bnorm_35/beta", "shape": [256], "dtype": "float32"}, {"name": "bnorm_35/moving_mean", "shape": [256], "dtype": "float32"}, {"name": "bnorm_35/moving_variance", "shape": [256], "dtype": "float32"}, {"name": "bnorm_37/gamma", "shape": [512], "dtype": "float32"}, {"name": "bnorm_37/beta", "shape": [512], "dtype": "float32"}, {"name": "bnorm_37/moving_mean", "shape": [512], "dtype": "float32"}, {"name": "bnorm_37/moving_variance", "shape": [512], "dtype": "float32"}, {"name": "bnorm_38/gamma", "shape": [256], "dtype": "float32"}, {"name": "bnorm_38/beta", "shape": [256], "dtype": "float32"}, {"name": "bnorm_38/moving_mean", "shape": [256], "dtype": "float32"}, {"name": "bnorm_38/moving_variance", "shape": [256], "dtype": "float32"}, {"name": "bnorm_39/gamma", "shape": [512], "dtype": "float32"}, {"name": "bnorm_39/beta", "shape": [512], "dtype": "float32"}, {"name": "bnorm_39/moving_mean", "shape": [512], "dtype": "float32"}, {"name": "bnorm_39/moving_variance", "shape": [512], "dtype": "float32"}, {"name": "bnorm_41/gamma", "shape": [256], "dtype": "float32"}, {"name": "bnorm_41/beta", "shape": [256], "dtype": "float32"}, {"name": "bnorm_41/moving_mean", "shape": [256], "dtype": "float32"}, {"name": "bnorm_41/moving_variance", "shape": [256], "dtype": "float32"}, {"name": "bnorm_42/gamma", "shape": [512], "dtype": "float32"}, {"name": "bnorm_42/beta", "shape": [512], "dtype": "float32"}, {"name": "bnorm_42/moving_mean", "shape": [512], "dtype": "float32"}, {"name": "bnorm_42/moving_variance", "shape": [512], "dtype": "float32"}, {"name": "bnorm_44/gamma", "shape": [256], "dtype": "float32"}, {"name": "bnorm_44/beta", "shape": [256], "dtype": "float32"}, {"name": "bnorm_44/moving_mean", "shape": [256], "dtype": "float32"}, {"name": "bnorm_44/moving_variance", "shape": [256], "dtype": "float32"}, {"name": "bnorm_45/gamma", "shape": [512], "dtype": "float32"}, {"name": "bnorm_45/beta", "shape": [512], "dtype": "float32"}, {"name": "bnorm_45/moving_mean", "shape": [512], "dtype": "float32"}, {"name": "bnorm_45/moving_variance", "shape": [512], "dtype": "float32"}, {"name": "bnorm_47/gamma", "shape": [256], "dtype": "float32"}, {"name": "bnorm_47/beta", "shape": [256], "dtype": "float32"}, {"name": "bnorm_47/moving_mean", "shape": [256], "dtype": "float32"}, {"name": "bnorm_47/moving_variance", "shape": [256], "dtype": "float32"}, {"name": "bnorm_48/gamma", "shape": [512], "dtype": "float32"}, {"name": "bnorm_48/beta", "shape": [512], "dtype": "float32"}, {"name": "bnorm_48/moving_mean", "shape": [512], "dtype": "float32"}, {"name": "bnorm_48/moving_variance", "shape": [512], "dtype": "float32"}, {"name": "bnorm_5/gamma", "shape": [128], "dtype": "float32"}, {"name": "bnorm_5/beta", "shape": [128], "dtype": "float32"}, {"name": "bnorm_5/moving_mean", "shape": [128], "dtype": "float32"}, {"name": "bnorm_5/moving_variance", "shape": [128], "dtype": "float32"}, {"name": "bnorm_50/gamma", "shape": [256], "dtype": "float32"}, {"name": "bnorm_50/beta", "shape": [256], "dtype": "float32"}, {"name": "bnorm_50/moving_mean", "shape": [256], "dtype": "float32"}, {"name": "bnorm_50/moving_variance", "shape": [256], "dtype": "float32"}, {"name": "bnorm_51/gamma", "shape": [512], "dtype": "float32"}, {"name": "bnorm_51/beta", "shape": [512], "dtype": "float32"}, {"name": "bnorm_51/moving_mean", "shape": [512], "dtype": "float32"}, {"name": "bnorm_51/moving_variance", "shape": [512], "dtype": "float32"}, {"name": "bnorm_53/gamma", "shape": [256], "dtype": "float32"}, {"name": "bnorm_53/beta", "shape": [256], "dtype": "float32"}, {"name": "bnorm_53/moving_mean", "shape": [256], "dtype": "float32"}, {"name": "bnorm_53/moving_variance", "shape": [256], "dtype": "float32"}, {"name": "bnorm_54/gamma", "shape": [512], "dtype": "float32"}, {"name": "bnorm_54/beta", "shape": [512], "dtype": "float32"}, {"name": "bnorm_54/moving_mean", "shape": [512], "dtype": "float32"}, {"name": "bnorm_54/moving_variance", "shape": [512], "dtype": "float32"}, {"name": "bnorm_56/gamma", "shape": [256], "dtype": "float32"}, {"name": "bnorm_56/beta", "shape": [256], "dtype": "float32"}, {"name": "bnorm_56/moving_mean", "shape": [256], "dtype": "float32"}, {"name": "bnorm_56/moving_variance", "shape": [256], "dtype": "float32"}, {"name": "bnorm_57/gamma", "shape": [512], "dtype": "float32"}, {"name": "bnorm_57/beta", "shape": [512], "dtype": "float32"}, {"name": "bnorm_57/moving_mean", "shape": [512], "dtype": "float32"}, {"name": "bnorm_57/moving_variance", "shape": [512], "dtype": "float32"}, {"name": "bnorm_59/gamma", "shape": [256], "dtype": "float32"}, {"name": "bnorm_59/beta", "shape": [256], "dtype": "float32"}, {"name": "bnorm_59/moving_mean", "shape": [256], "dtype": "float32"}, {"name": "bnorm_59/moving_variance", "shape": [256], "dtype": "float32"}, {"name": "bnorm_6/gamma", "shape": [64], "dtype": "float32"}, {"name": "bnorm_6/beta", "shape": [64], "dtype": "float32"}, {"name": "bnorm_6/moving_mean", "shape": [64], "dtype": "float32"}, {"name": "bnorm_6/moving_variance", "shape": [64], "dtype": "float32"}, {"name": "bnorm_60/gamma", "shape": [512], "dtype": "float32"}, {"name": "bnorm_60/beta", "shape": [512], "dtype": "float32"}, {"name": "bnorm_60/moving_mean", "shape": [512], "dtype": "float32"}, {"name": "bnorm_60/moving_variance", "shape": [512], "dtype": "float32"}, {"name": "bnorm_62/gamma", "shape": [1024], "dtype": "float32"}, {"name": "bnorm_62/beta", "shape": [1024], "dtype": "float32"}, {"name": "bnorm_62/moving_mean", "shape": [1024], "dtype": "float32"}, {"name": "bnorm_62/moving_variance", "shape": [1024], "dtype": "float32"}, {"name": "bnorm_63/gamma", "shape": [512], "dtype": "float32"}, {"name": "bnorm_63/beta", "shape": [512], "dtype": "float32"}, {"name": "bnorm_63/moving_mean", "shape": [512], "dtype": "float32"}, {"name": "bnorm_63/moving_variance", "shape": [512], "dtype": "float32"}, {"name": "bnorm_64/gamma", "shape": [1024], "dtype": "float32"}, {"name": "bnorm_64/beta", "shape": [1024], "dtype": "float32"}, {"name": "bnorm_64/moving_mean", "shape": [1024], "dtype": "float32"}, {"name": "bnorm_64/moving_variance", "shape": [1024], "dtype": "float32"}, {"name": "bnorm_66/gamma", "shape": [512], "dtype": "float32"}, {"name": "bnorm_66/beta", "shape": [512], "dtype": "float32"}, {"name": "bnorm_66/moving_mean", "shape": [512], "dtype": "float32"}, {"name": "bnorm_66/moving_variance", "shape": [512], "dtype": "float32"}, {"name": "bnorm_67/gamma", "shape": [1024], "dtype": "float32"}, {"name": "bnorm_67/beta", "shape": [1024], "dtype": "float32"}, {"name": "bnorm_67/moving_mean", "shape": [1024], "dtype": "float32"}, {"name": "bnorm_67/moving_variance", "shape": [1024], "dtype": "float32"}, {"name": "bnorm_69/gamma", "shape": [512], "dtype": "float32"}, {"name": "bnorm_69/beta", "shape": [512], "dtype": "float32"}, {"name": "bnorm_69/moving_mean", "shape": [512], "dtype": "float32"}, {"name": "bnorm_69/moving_variance", "shape": [512], "dtype": "float32"}, {"name": "bnorm_7/gamma", "shape": [128], "dtype": "float32"}, {"name": "bnorm_7/beta", "shape": [128], "dtype": "float32"}, {"name": "bnorm_7/moving_mean", "shape": [128], "dtype": "float32"}, {"name": "bnorm_7/moving_variance", "shape": [128], "dtype": "float32"}, {"name": "bnorm_70/gamma", "shape": [1024], "dtype": "float32"}, {"name": "bnorm_70/beta", "shape": [1024], "dtype": "float32"}, {"name": "bnorm_70/moving_mean", "shape": [1024], "dtype": "float32"}, {"name": "bnorm_70/moving_variance", "shape": [1024], "dtype": "float32"}, {"name": "bnorm_72/gamma", "shape": [512], "dtype": "float32"}, {"name": "bnorm_72/beta", "shape": [512], "dtype": "float32"}, {"name": "bnorm_72/moving_mean", "shape": [512], "dtype": "float32"}, {"name": "bnorm_72/moving_variance", "shape": [512], "dtype": "float32"}, {"name": "bnorm_73/gamma", "shape": [1024], "dtype": "float32"}, {"name": "bnorm_73/beta", "shape": [1024], "dtype": "float32"}, {"name": "bnorm_73/moving_mean", "shape": [1024], "dtype": "float32"}, {"name": "bnorm_73/moving_variance", "shape": [1024], "dtype": "float32"}, {"name": "bnorm_75/gamma", "shape": [512], "dtype": "float32"}, {"name": "bnorm_75/beta", "shape": [512], "dtype": "float32"}, {"name": "bnorm_75/moving_mean", "shape": [512], "dtype": "float32"}, {"name": "bnorm_75/moving_variance", "shape": [512], "dtype": "float32"}, {"name": "bnorm_76/gamma", "shape": [1024], "dtype": "float32"}, {"name": "bnorm_76/beta", "shape": [1024], "dtype": "float32"}, {"name": "bnorm_76/moving_mean", "shape": [1024], "dtype": "float32"}, {"name": "bnorm_76/moving_variance", "shape": [1024], "dtype": "float32"}, {"name": "bnorm_77/gamma", "shape": [512], "dtype": "float32"}, {"name": "bnorm_77/beta", "shape": [512], "dtype": "float32"}, {"name": "bnorm_77/moving_mean", "shape": [512], "dtype": "float32"}, {"name": "bnorm_77/moving_variance", "shape": [512], "dtype": "float32"}, {"name": "bnorm_78/gamma", "shape": [1024], "dtype": "float32"}, {"name": "bnorm_78/beta", "shape": [1024], "dtype": "float32"}, {"name": "bnorm_78/moving_mean", "shape": [1024], "dtype": "float32"}, {"name": "bnorm_78/moving_variance", "shape": [1024], "dtype": "float32"}, {"name": "bnorm_79/gamma", "shape": [512], "dtype": "float32"}, {"name": "bnorm_79/beta", "shape": [512], "dtype": "float32"}, {"name": "bnorm_79/moving_mean", "shape": [512], "dtype": "float32"}, {"name": "bnorm_79/moving_variance", "shape": [512], "dtype": "float32"}, {"name": "bnorm_80/gamma", "shape": [1024], "dtype": "float32"}, {"name": "bnorm_80/beta", "shape": [1024], "dtype": "float32"}, {"name": "bnorm_80/moving_mean", "shape": [1024], "dtype": "float32"}, {"name": "bnorm_80/moving_variance", "shape": [1024], "dtype": "float32"}, {"name": "bnorm_84/gamma", "shape": [256], "dtype": "float32"}, {"name": "bnorm_84/beta", "shape": [256], "dtype": "float32"}, {"name": "bnorm_84/moving_mean", "shape": [256], "dtype": "float32"}, {"name": "bnorm_84/moving_variance", "shape": [256], "dtype": "float32"}, {"name": "bnorm_87/gamma", "shape": [256], "dtype": "float32"}, {"name": "bnorm_87/beta", "shape": [256], "dtype": "float32"}, {"name": "bnorm_87/moving_mean", "shape": [256], "dtype": "float32"}, {"name": "bnorm_87/moving_variance", "shape": [256], "dtype": "float32"}, {"name": "bnorm_88/gamma", "shape": [512], "dtype": "float32"}, {"name": "bnorm_88/beta", "shape": [512], "dtype": "float32"}, {"name": "bnorm_88/moving_mean", "shape": [512], "dtype": "float32"}, {"name": "bnorm_88/moving_variance", "shape": [512], "dtype": "float32"}, {"name": "bnorm_89/gamma", "shape": [256], "dtype": "float32"}, {"name": "bnorm_89/beta", "shape": [256], "dtype": "float32"}, {"name": "bnorm_89/moving_mean", "shape": [256], "dtype": "float32"}, {"name": "bnorm_89/moving_variance", "shape": [256], "dtype": "float32"}, {"name": "bnorm_9/gamma", "shape": [64], "dtype": "float32"}, {"name": "bnorm_9/beta", "shape": [64], "dtype": "float32"}, {"name": "bnorm_9/moving_mean", "shape": [64], "dtype": "float32"}, {"name": "bnorm_9/moving_variance", "shape": [64], "dtype": "float32"}, {"name": "bnorm_90/gamma", "shape": [512], "dtype": "float32"}, {"name": "bnorm_90/beta", "shape": [512], "dtype": "float32"}, {"name": "bnorm_90/moving_mean", "shape": [512], "dtype": "float32"}, {"name": "bnorm_90/moving_variance", "shape": [512], "dtype": "float32"}, {"name": "bnorm_91/gamma", "shape": [256], "dtype": "float32"}, {"name": "bnorm_91/beta", "shape": [256], "dtype": "float32"}, {"name": "bnorm_91/moving_mean", "shape": [256], "dtype": "float32"}, {"name": "bnorm_91/moving_variance", "shape": [256], "dtype": "float32"}, {"name": "bnorm_92/gamma", "shape": [512], "dtype": "float32"}, {"name": "bnorm_92/beta", "shape": [512], "dtype": "float32"}, {"name": "bnorm_92/moving_mean", "shape": [512], "dtype": "float32"}, {"name": "bnorm_92/moving_variance", "shape": [512], "dtype": "float32"}, {"name": "bnorm_96/gamma", "shape": [128], "dtype": "float32"}, {"name": "bnorm_96/beta", "shape": [128], "dtype": "float32"}, {"name": "bnorm_96/moving_mean", "shape": [128], "dtype": "float32"}, {"name": "bnorm_96/moving_variance", "shape": [128], "dtype": "float32"}, {"name": "bnorm_99/gamma", "shape": [128], "dtype": "float32"}, {"name": "bnorm_99/beta", "shape": [128], "dtype": "float32"}, {"name": "bnorm_99/moving_mean", "shape": [128], "dtype": "float32"}, {"name": "bnorm_99/moving_variance", "shape": [128], "dtype": "float32"}, {"name": "conv_0/kernel", "shape": [3, 3, 3, 32], "dtype": "float32"}, {"name": "conv_1/kernel", "shape": [3, 3, 32, 64], "dtype": "float32"}, {"name": "conv_10/kernel", "shape": [3, 3, 64, 128], "dtype": "float32"}, {"name": "conv_100/kernel", "shape": [3, 3, 128, 256], "dtype": "float32"}, {"name": "conv_101/kernel", "shape": [1, 1, 256, 128], "dtype": "float32"}, {"name": "conv_102/kernel", "shape": [3, 3, 128, 256], "dtype": "float32"}, {"name": "conv_103/kernel", "shape": [1, 1, 256, 128], "dtype": "float32"}, {"name": "conv_104/kernel", "shape": [3, 3, 128, 256], "dtype": "float32"}, {"name": "conv_105/kernel", "shape": [1, 1, 256, 30], "dtype": "float32"}, {"name": "conv_105/bias", "shape": [30], "dtype": "float32"}, {"name": "conv_12/kernel", "shape": [3, 3, 128, 256], "dtype": "float32"}, {"name": "conv_13/kernel", "shape": [1, 1, 256, 128], "dtype": "float32"}, {"name": "conv_14/kernel", "shape": [3, 3, 128, 256], "dtype": "float32"}, {"name": "conv_16/kernel", "shape": [1, 1, 256, 128], "dtype": "float32"}, {"name": "conv_17/kernel", "shape": [3, 3, 128, 256], "dtype": "float32"}, {"name": "conv_19/kernel", "shape": [1, 1, 256, 128], "dtype": "float32"}, {"name": "conv_2/kernel", "shape": [1, 1, 64, 32], "dtype": "float32"}, {"name": "conv_20/kernel", "shape": [3, 3, 128, 256], "dtype": "float32"}, {"name": "conv_22/kernel", "shape": [1, 1, 256, 128], "dtype": "float32"}, {"name": "conv_23/kernel", "shape": [3, 3, 128, 256], "dtype": "float32"}, {"name": "conv_25/kernel", "shape": [1, 1, 256, 128], "dtype": "float32"}, {"name": "conv_26/kernel", "shape": [3, 3, 128, 256], "dtype": "float32"}, {"name": "conv_28/kernel", "shape": [1, 1, 256, 128], "dtype": "float32"}, {"name": "conv_29/kernel", "shape": [3, 3, 128, 256], "dtype": "float32"}, {"name": "conv_3/kernel", "shape": [3, 3, 32, 64], "dtype": "float32"}, {"name": "conv_31/kernel", "shape": [1, 1, 256, 128], "dtype": "float32"}, {"name": "conv_32/kernel", "shape": [3, 3, 128, 256], "dtype": "float32"}, {"name": "conv_34/kernel", "shape": [1, 1, 256, 128], "dtype": "float32"}, {"name": "conv_35/kernel", "shape": [3, 3, 128, 256], "dtype": "float32"}, {"name": "conv_37/kernel", "shape": [3, 3, 256, 512], "dtype": "float32"}, {"name": "conv_38/kernel", "shape": [1, 1, 512, 256], "dtype": "float32"}, {"name": "conv_39/kernel", "shape": [3, 3, 256, 512], "dtype": "float32"}, {"name": "conv_41/kernel", "shape": [1, 1, 512, 256], "dtype": "float32"}, {"name": "conv_42/kernel", "shape": [3, 3, 256, 512], "dtype": "float32"}, {"name": "conv_44/kernel", "shape": [1, 1, 512, 256], "dtype": "float32"}, {"name": "conv_45/kernel", "shape": [3, 3, 256, 512], "dtype": "float32"}, {"name": "conv_47/kernel", "shape": [1, 1, 512, 256], "dtype": "float32"}, {"name": "conv_48/kernel", "shape": [3, 3, 256, 512], "dtype": "float32"}, {"name": "conv_5/kernel", "shape": [3, 3, 64, 128], "dtype": "float32"}, {"name": "conv_50/kernel", "shape": [1, 1, 512, 256], "dtype": "float32"}, {"name": "conv_51/kernel", "shape": [3, 3, 256, 512], "dtype": "float32"}, {"name": "conv_53/kernel", "shape": [1, 1, 512, 256], "dtype": "float32"}, {"name": "conv_54/kernel", "shape": [3, 3, 256, 512], "dtype": "float32"}, {"name": "conv_56/kernel", "shape": [1, 1, 512, 256], "dtype": "float32"}, {"name": "conv_57/kernel", "shape": [3, 3, 256, 512], "dtype": "float32"}, {"name": "conv_59/kernel", "shape": [1, 1, 512, 256], "dtype": "float32"}, {"name": "conv_6/kernel", "shape": [1, 1, 128, 64], "dtype": "float32"}, {"name": "conv_60/kernel", "shape": [3, 3, 256, 512], "dtype": "float32"}, {"name": "conv_62/kernel", "shape": [3, 3, 512, 1024], "dtype": "float32"}, {"name": "conv_63/kernel", "shape": [1, 1, 1024, 512], "dtype": "float32"}, {"name": "conv_64/kernel", "shape": [3, 3, 512, 1024], "dtype": "float32"}, {"name": "conv_66/kernel", "shape": [1, 1, 1024, 512], "dtype": "float32"}, {"name": "conv_67/kernel", "shape": [3, 3, 512, 1024], "dtype": "float32"}, {"name": "conv_69/kernel", "shape": [1, 1, 1024, 512], "dtype": "float32"}, {"name": "conv_7/kernel", "shape": [3, 3, 64, 128], "dtype": "float32"}, {"name": "conv_70/kernel", "shape": [3, 3, 512, 1024], "dtype": "float32"}, {"name": "conv_72/kernel", "shape": [1, 1, 1024, 512], "dtype": "float32"}, {"name": "conv_73/kernel", "shape": [3, 3, 512, 1024], "dtype": "float32"}, {"name": "conv_75/kernel", "shape": [1, 1, 1024, 512], "dtype": "float32"}, {"name": "conv_76/kernel", "shape": [3, 3, 512, 1024], "dtype": "float32"}, {"name": "conv_77/kernel", "shape": [1, 1, 1024, 512], "dtype": "float32"}, {"name": "conv_78/kernel", "shape": [3, 3, 512, 1024], "dtype": "float32"}, {"name": "conv_79/kernel", "shape": [1, 1, 1024, 512], "dtype": "float32"}, {"name": "conv_80/kernel", "shape": [3, 3, 512, 1024], "dtype": "float32"}, {"name": "conv_81/kernel", "shape": [1, 1, 1024, 30], "dtype": "float32"}, {"name": "conv_81/bias", "shape": [30], "dtype": "float32"}, {"name": "conv_84/kernel", "shape": [1, 1, 512, 256], "dtype": "float32"}, {"name": "conv_87/kernel", "shape": [1, 1, 768, 256], "dtype": "float32"}, {"name": "conv_88/kernel", "shape": [3, 3, 256, 512], "dtype": "float32"}, {"name": "conv_89/kernel", "shape": [1, 1, 512, 256], "dtype": "float32"}, {"name": "conv_9/kernel", "shape": [1, 1, 128, 64], "dtype": "float32"}, {"name": "conv_90/kernel", "shape": [3, 3, 256, 512], "dtype": "float32"}, {"name": "conv_91/kernel", "shape": [1, 1, 512, 256], "dtype": "float32"}, {"name": "conv_92/kernel", "shape": [3, 3, 256, 512], "dtype": "float32"}, {"name": "conv_93/kernel", "shape": [1, 1, 512, 30], "dtype": "float32"}, {"name": "conv_93/bias", "shape": [30], "dtype": "float32"}, {"name": "conv_96/kernel", "shape": [1, 1, 256, 128], "dtype": "float32"}, {"name": "conv_99/kernel", "shape": [1, 1, 384, 128], "dtype": "float32"}]}]}